node {
  name: "global_step/Initializer/zeros"
  op: "Const"
  attr {
    key: "_class"
    value {
      list {
        s: "loc:@global_step"
      }
    }
  }
  attr {
    key: "_output_shapes"
    value {
      list {
        shape {
        }
      }
    }
  }
  attr {
    key: "dtype"
    value {
      type: DT_INT64
    }
  }
  attr {
    key: "value"
    value {
      tensor {
        dtype: DT_INT64
        tensor_shape {
        }
        int64_val: 0
      }
    }
  }
}
node {
  name: "global_step"
  op: "VariableV2"
  attr {
    key: "_class"
    value {
      list {
        s: "loc:@global_step"
      }
    }
  }
  attr {
    key: "_output_shapes"
    value {
      list {
        shape {
        }
      }
    }
  }
  attr {
    key: "container"
    value {
      s: ""
    }
  }
  attr {
    key: "dtype"
    value {
      type: DT_INT64
    }
  }
  attr {
    key: "shape"
    value {
      shape {
      }
    }
  }
  attr {
    key: "shared_name"
    value {
      s: ""
    }
  }
}
node {
  name: "global_step/Assign"
  op: "Assign"
  input: "global_step"
  input: "global_step/Initializer/zeros"
  attr {
    key: "T"
    value {
      type: DT_INT64
    }
  }
  attr {
    key: "_class"
    value {
      list {
        s: "loc:@global_step"
      }
    }
  }
  attr {
    key: "_output_shapes"
    value {
      list {
        shape {
        }
      }
    }
  }
  attr {
    key: "use_locking"
    value {
      b: true
    }
  }
  attr {
    key: "validate_shape"
    value {
      b: true
    }
  }
}
node {
  name: "global_step/read"
  op: "Identity"
  input: "global_step"
  attr {
    key: "T"
    value {
      type: DT_INT64
    }
  }
  attr {
    key: "_class"
    value {
      list {
        s: "loc:@global_step"
      }
    }
  }
  attr {
    key: "_output_shapes"
    value {
      list {
        shape {
        }
      }
    }
  }
}
node {
  name: "IsVariableInitialized"
  op: "IsVariableInitialized"
  input: "global_step"
  attr {
    key: "_class"
    value {
      list {
        s: "loc:@global_step"
      }
    }
  }
  attr {
    key: "_output_shapes"
    value {
      list {
        shape {
        }
      }
    }
  }
  attr {
    key: "dtype"
    value {
      type: DT_INT64
    }
  }
}
node {
  name: "cond/Switch"
  op: "Switch"
  input: "IsVariableInitialized"
  input: "IsVariableInitialized"
  attr {
    key: "T"
    value {
      type: DT_BOOL
    }
  }
  attr {
    key: "_output_shapes"
    value {
      list {
        shape {
        }
        shape {
        }
      }
    }
  }
}
node {
  name: "cond/switch_t"
  op: "Identity"
  input: "cond/Switch:1"
  attr {
    key: "T"
    value {
      type: DT_BOOL
    }
  }
  attr {
    key: "_output_shapes"
    value {
      list {
        shape {
        }
      }
    }
  }
}
node {
  name: "cond/switch_f"
  op: "Identity"
  input: "cond/Switch"
  attr {
    key: "T"
    value {
      type: DT_BOOL
    }
  }
  attr {
    key: "_output_shapes"
    value {
      list {
        shape {
        }
      }
    }
  }
}
node {
  name: "cond/pred_id"
  op: "Identity"
  input: "IsVariableInitialized"
  attr {
    key: "T"
    value {
      type: DT_BOOL
    }
  }
  attr {
    key: "_output_shapes"
    value {
      list {
        shape {
        }
      }
    }
  }
}
node {
  name: "cond/read/Switch"
  op: "RefSwitch"
  input: "global_step"
  input: "cond/pred_id"
  attr {
    key: "T"
    value {
      type: DT_INT64
    }
  }
  attr {
    key: "_class"
    value {
      list {
        s: "loc:@global_step"
      }
    }
  }
  attr {
    key: "_output_shapes"
    value {
      list {
        shape {
        }
        shape {
        }
      }
    }
  }
}
node {
  name: "cond/read"
  op: "Identity"
  input: "cond/read/Switch:1"
  attr {
    key: "T"
    value {
      type: DT_INT64
    }
  }
  attr {
    key: "_output_shapes"
    value {
      list {
        shape {
        }
      }
    }
  }
}
node {
  name: "cond/Switch_1"
  op: "Switch"
  input: "global_step/Initializer/zeros"
  input: "cond/pred_id"
  attr {
    key: "T"
    value {
      type: DT_INT64
    }
  }
  attr {
    key: "_class"
    value {
      list {
        s: "loc:@global_step"
      }
    }
  }
  attr {
    key: "_output_shapes"
    value {
      list {
        shape {
        }
        shape {
        }
      }
    }
  }
}
node {
  name: "cond/Merge"
  op: "Merge"
  input: "cond/Switch_1"
  input: "cond/read"
  attr {
    key: "N"
    value {
      i: 2
    }
  }
  attr {
    key: "T"
    value {
      type: DT_INT64
    }
  }
  attr {
    key: "_output_shapes"
    value {
      list {
        shape {
        }
        shape {
        }
      }
    }
  }
}
node {
  name: "add/y"
  op: "Const"
  attr {
    key: "_output_shapes"
    value {
      list {
        shape {
        }
      }
    }
  }
  attr {
    key: "dtype"
    value {
      type: DT_INT64
    }
  }
  attr {
    key: "value"
    value {
      tensor {
        dtype: DT_INT64
        tensor_shape {
        }
        int64_val: 0
      }
    }
  }
}
node {
  name: "add"
  op: "Add"
  input: "cond/Merge"
  input: "add/y"
  attr {
    key: "T"
    value {
      type: DT_INT64
    }
  }
  attr {
    key: "_output_shapes"
    value {
      list {
        shape {
        }
      }
    }
  }
}
node {
  name: "enqueue_input/fifo_queue"
  op: "FIFOQueueV2"
  device: "/device:CPU:0"
  attr {
    key: "_output_shapes"
    value {
      list {
        shape {
        }
      }
    }
  }
  attr {
    key: "capacity"
    value {
      i: 1280
    }
  }
  attr {
    key: "component_types"
    value {
      list {
        type: DT_DOUBLE
        type: DT_DOUBLE
      }
    }
  }
  attr {
    key: "container"
    value {
      s: ""
    }
  }
  attr {
    key: "shapes"
    value {
      list {
        shape {
          dim {
            size: 25
          }
          dim {
            size: 51
          }
        }
        shape {
          dim {
            size: 25
          }
          dim {
            size: 51
          }
        }
      }
    }
  }
  attr {
    key: "shared_name"
    value {
      s: ""
    }
  }
}
node {
  name: "enqueue_input/Placeholder"
  op: "Placeholder"
  device: "/device:CPU:0"
  attr {
    key: "_output_shapes"
    value {
      list {
        shape {
          unknown_rank: true
        }
      }
    }
  }
  attr {
    key: "dtype"
    value {
      type: DT_DOUBLE
    }
  }
  attr {
    key: "shape"
    value {
      shape {
        unknown_rank: true
      }
    }
  }
}
node {
  name: "enqueue_input/Placeholder_1"
  op: "Placeholder"
  device: "/device:CPU:0"
  attr {
    key: "_output_shapes"
    value {
      list {
        shape {
          unknown_rank: true
        }
      }
    }
  }
  attr {
    key: "dtype"
    value {
      type: DT_DOUBLE
    }
  }
  attr {
    key: "shape"
    value {
      shape {
        unknown_rank: true
      }
    }
  }
}
node {
  name: "enqueue_input/fifo_queue_EnqueueMany"
  op: "QueueEnqueueManyV2"
  input: "enqueue_input/fifo_queue"
  input: "enqueue_input/Placeholder"
  input: "enqueue_input/Placeholder_1"
  device: "/device:CPU:0"
  attr {
    key: "Tcomponents"
    value {
      list {
        type: DT_DOUBLE
        type: DT_DOUBLE
      }
    }
  }
  attr {
    key: "timeout_ms"
    value {
      i: -1
    }
  }
}
node {
  name: "enqueue_input/fifo_queue_Close"
  op: "QueueCloseV2"
  input: "enqueue_input/fifo_queue"
  device: "/device:CPU:0"
  attr {
    key: "cancel_pending_enqueues"
    value {
      b: false
    }
  }
}
node {
  name: "enqueue_input/fifo_queue_Close_1"
  op: "QueueCloseV2"
  input: "enqueue_input/fifo_queue"
  device: "/device:CPU:0"
  attr {
    key: "cancel_pending_enqueues"
    value {
      b: true
    }
  }
}
node {
  name: "enqueue_input/fifo_queue_Size"
  op: "QueueSizeV2"
  input: "enqueue_input/fifo_queue"
  device: "/device:CPU:0"
  attr {
    key: "_output_shapes"
    value {
      list {
        shape {
        }
      }
    }
  }
}
node {
  name: "enqueue_input/sub/y"
  op: "Const"
  device: "/device:CPU:0"
  attr {
    key: "_output_shapes"
    value {
      list {
        shape {
        }
      }
    }
  }
  attr {
    key: "dtype"
    value {
      type: DT_INT32
    }
  }
  attr {
    key: "value"
    value {
      tensor {
        dtype: DT_INT32
        tensor_shape {
        }
        int_val: 0
      }
    }
  }
}
node {
  name: "enqueue_input/sub"
  op: "Sub"
  input: "enqueue_input/fifo_queue_Size"
  input: "enqueue_input/sub/y"
  device: "/device:CPU:0"
  attr {
    key: "T"
    value {
      type: DT_INT32
    }
  }
  attr {
    key: "_output_shapes"
    value {
      list {
        shape {
        }
      }
    }
  }
}
node {
  name: "enqueue_input/Maximum/x"
  op: "Const"
  device: "/device:CPU:0"
  attr {
    key: "_output_shapes"
    value {
      list {
        shape {
        }
      }
    }
  }
  attr {
    key: "dtype"
    value {
      type: DT_INT32
    }
  }
  attr {
    key: "value"
    value {
      tensor {
        dtype: DT_INT32
        tensor_shape {
        }
        int_val: 0
      }
    }
  }
}
node {
  name: "enqueue_input/Maximum"
  op: "Maximum"
  input: "enqueue_input/Maximum/x"
  input: "enqueue_input/sub"
  device: "/device:CPU:0"
  attr {
    key: "T"
    value {
      type: DT_INT32
    }
  }
  attr {
    key: "_output_shapes"
    value {
      list {
        shape {
        }
      }
    }
  }
}
node {
  name: "enqueue_input/Cast"
  op: "Cast"
  input: "enqueue_input/Maximum"
  device: "/device:CPU:0"
  attr {
    key: "DstT"
    value {
      type: DT_FLOAT
    }
  }
  attr {
    key: "SrcT"
    value {
      type: DT_INT32
    }
  }
  attr {
    key: "_output_shapes"
    value {
      list {
        shape {
        }
      }
    }
  }
}
node {
  name: "enqueue_input/mul/y"
  op: "Const"
  device: "/device:CPU:0"
  attr {
    key: "_output_shapes"
    value {
      list {
        shape {
        }
      }
    }
  }
  attr {
    key: "dtype"
    value {
      type: DT_FLOAT
    }
  }
  attr {
    key: "value"
    value {
      tensor {
        dtype: DT_FLOAT
        tensor_shape {
        }
        float_val: 0.0007812500116415322
      }
    }
  }
}
node {
  name: "enqueue_input/mul"
  op: "Mul"
  input: "enqueue_input/Cast"
  input: "enqueue_input/mul/y"
  device: "/device:CPU:0"
  attr {
    key: "T"
    value {
      type: DT_FLOAT
    }
  }
  attr {
    key: "_output_shapes"
    value {
      list {
        shape {
        }
      }
    }
  }
}
node {
  name: "enqueue_input/queue/enqueue_input/fifo_queuefraction_over_0_of_1280_full/tags"
  op: "Const"
  device: "/device:CPU:0"
  attr {
    key: "_output_shapes"
    value {
      list {
        shape {
        }
      }
    }
  }
  attr {
    key: "dtype"
    value {
      type: DT_STRING
    }
  }
  attr {
    key: "value"
    value {
      tensor {
        dtype: DT_STRING
        tensor_shape {
        }
        string_val: "enqueue_input/queue/enqueue_input/fifo_queuefraction_over_0_of_1280_full"
      }
    }
  }
}
node {
  name: "enqueue_input/queue/enqueue_input/fifo_queuefraction_over_0_of_1280_full"
  op: "ScalarSummary"
  input: "enqueue_input/queue/enqueue_input/fifo_queuefraction_over_0_of_1280_full/tags"
  input: "enqueue_input/mul"
  device: "/device:CPU:0"
  attr {
    key: "T"
    value {
      type: DT_FLOAT
    }
  }
  attr {
    key: "_output_shapes"
    value {
      list {
        shape {
        }
      }
    }
  }
}
node {
  name: "fifo_queue_DequeueMany/n"
  op: "Const"
  device: "/device:CPU:0"
  attr {
    key: "_output_shapes"
    value {
      list {
        shape {
        }
      }
    }
  }
  attr {
    key: "dtype"
    value {
      type: DT_INT32
    }
  }
  attr {
    key: "value"
    value {
      tensor {
        dtype: DT_INT32
        tensor_shape {
        }
        int_val: 128
      }
    }
  }
}
node {
  name: "fifo_queue_DequeueMany"
  op: "QueueDequeueManyV2"
  input: "enqueue_input/fifo_queue"
  input: "fifo_queue_DequeueMany/n"
  device: "/device:CPU:0"
  attr {
    key: "_output_shapes"
    value {
      list {
        shape {
          dim {
            size: 128
          }
          dim {
            size: 25
          }
          dim {
            size: 51
          }
        }
        shape {
          dim {
            size: 128
          }
          dim {
            size: 25
          }
          dim {
            size: 51
          }
        }
      }
    }
  }
  attr {
    key: "component_types"
    value {
      list {
        type: DT_DOUBLE
        type: DT_DOUBLE
      }
    }
  }
  attr {
    key: "timeout_ms"
    value {
      i: -1
    }
  }
}
node {
  name: "unstack"
  op: "Unpack"
  input: "fifo_queue_DequeueMany"
  input: "^add"
  attr {
    key: "T"
    value {
      type: DT_DOUBLE
    }
  }
  attr {
    key: "_output_shapes"
    value {
      list {
        shape {
          dim {
            size: 128
          }
          dim {
            size: 51
          }
        }
        shape {
          dim {
            size: 128
          }
          dim {
            size: 51
          }
        }
        shape {
          dim {
            size: 128
          }
          dim {
            size: 51
          }
        }
        shape {
          dim {
            size: 128
          }
          dim {
            size: 51
          }
        }
        shape {
          dim {
            size: 128
          }
          dim {
            size: 51
          }
        }
        shape {
          dim {
            size: 128
          }
          dim {
            size: 51
          }
        }
        shape {
          dim {
            size: 128
          }
          dim {
            size: 51
          }
        }
        shape {
          dim {
            size: 128
          }
          dim {
            size: 51
          }
        }
        shape {
          dim {
            size: 128
          }
          dim {
            size: 51
          }
        }
        shape {
          dim {
            size: 128
          }
          dim {
            size: 51
          }
        }
        shape {
          dim {
            size: 128
          }
          dim {
            size: 51
          }
        }
        shape {
          dim {
            size: 128
          }
          dim {
            size: 51
          }
        }
        shape {
          dim {
            size: 128
          }
          dim {
            size: 51
          }
        }
        shape {
          dim {
            size: 128
          }
          dim {
            size: 51
          }
        }
        shape {
          dim {
            size: 128
          }
          dim {
            size: 51
          }
        }
        shape {
          dim {
            size: 128
          }
          dim {
            size: 51
          }
        }
        shape {
          dim {
            size: 128
          }
          dim {
            size: 51
          }
        }
        shape {
          dim {
            size: 128
          }
          dim {
            size: 51
          }
        }
        shape {
          dim {
            size: 128
          }
          dim {
            size: 51
          }
        }
        shape {
          dim {
            size: 128
          }
          dim {
            size: 51
          }
        }
        shape {
          dim {
            size: 128
          }
          dim {
            size: 51
          }
        }
        shape {
          dim {
            size: 128
          }
          dim {
            size: 51
          }
        }
        shape {
          dim {
            size: 128
          }
          dim {
            size: 51
          }
        }
        shape {
          dim {
            size: 128
          }
          dim {
            size: 51
          }
        }
        shape {
          dim {
            size: 128
          }
          dim {
            size: 51
          }
        }
      }
    }
  }
  attr {
    key: "axis"
    value {
      i: 1
    }
  }
  attr {
    key: "num"
    value {
      i: 25
    }
  }
}
node {
  name: "rnn/BasicLSTMCellZeroState/Const"
  op: "Const"
  input: "^add"
  attr {
    key: "_output_shapes"
    value {
      list {
        shape {
          dim {
            size: 1
          }
        }
      }
    }
  }
  attr {
    key: "dtype"
    value {
      type: DT_INT32
    }
  }
  attr {
    key: "value"
    value {
      tensor {
        dtype: DT_INT32
        tensor_shape {
          dim {
            size: 1
          }
        }
        int_val: 128
      }
    }
  }
}
node {
  name: "rnn/BasicLSTMCellZeroState/Const_1"
  op: "Const"
  input: "^add"
  attr {
    key: "_output_shapes"
    value {
      list {
        shape {
          dim {
            size: 1
          }
        }
      }
    }
  }
  attr {
    key: "dtype"
    value {
      type: DT_INT32
    }
  }
  attr {
    key: "value"
    value {
      tensor {
        dtype: DT_INT32
        tensor_shape {
          dim {
            size: 1
          }
        }
        int_val: 100
      }
    }
  }
}
node {
  name: "rnn/BasicLSTMCellZeroState/concat/axis"
  op: "Const"
  input: "^add"
  attr {
    key: "_output_shapes"
    value {
      list {
        shape {
        }
      }
    }
  }
  attr {
    key: "dtype"
    value {
      type: DT_INT32
    }
  }
  attr {
    key: "value"
    value {
      tensor {
        dtype: DT_INT32
        tensor_shape {
        }
        int_val: 0
      }
    }
  }
}
node {
  name: "rnn/BasicLSTMCellZeroState/concat"
  op: "ConcatV2"
  input: "rnn/BasicLSTMCellZeroState/Const"
  input: "rnn/BasicLSTMCellZeroState/Const_1"
  input: "rnn/BasicLSTMCellZeroState/concat/axis"
  attr {
    key: "N"
    value {
      i: 2
    }
  }
  attr {
    key: "T"
    value {
      type: DT_INT32
    }
  }
  attr {
    key: "Tidx"
    value {
      type: DT_INT32
    }
  }
  attr {
    key: "_output_shapes"
    value {
      list {
        shape {
          dim {
            size: 2
          }
        }
      }
    }
  }
}
node {
  name: "rnn/BasicLSTMCellZeroState/zeros/Const"
  op: "Const"
  input: "^add"
  attr {
    key: "_output_shapes"
    value {
      list {
        shape {
        }
      }
    }
  }
  attr {
    key: "dtype"
    value {
      type: DT_DOUBLE
    }
  }
  attr {
    key: "value"
    value {
      tensor {
        dtype: DT_DOUBLE
        tensor_shape {
        }
        double_val: 0.0
      }
    }
  }
}
node {
  name: "rnn/BasicLSTMCellZeroState/zeros"
  op: "Fill"
  input: "rnn/BasicLSTMCellZeroState/concat"
  input: "rnn/BasicLSTMCellZeroState/zeros/Const"
  attr {
    key: "T"
    value {
      type: DT_DOUBLE
    }
  }
  attr {
    key: "_output_shapes"
    value {
      list {
        shape {
          dim {
            size: 128
          }
          dim {
            size: 100
          }
        }
      }
    }
  }
}
node {
  name: "rnn/BasicLSTMCellZeroState/Const_2"
  op: "Const"
  input: "^add"
  attr {
    key: "_output_shapes"
    value {
      list {
        shape {
          dim {
            size: 1
          }
        }
      }
    }
  }
  attr {
    key: "dtype"
    value {
      type: DT_INT32
    }
  }
  attr {
    key: "value"
    value {
      tensor {
        dtype: DT_INT32
        tensor_shape {
          dim {
            size: 1
          }
        }
        int_val: 128
      }
    }
  }
}
node {
  name: "rnn/BasicLSTMCellZeroState/Const_3"
  op: "Const"
  input: "^add"
  attr {
    key: "_output_shapes"
    value {
      list {
        shape {
          dim {
            size: 1
          }
        }
      }
    }
  }
  attr {
    key: "dtype"
    value {
      type: DT_INT32
    }
  }
  attr {
    key: "value"
    value {
      tensor {
        dtype: DT_INT32
        tensor_shape {
          dim {
            size: 1
          }
        }
        int_val: 100
      }
    }
  }
}
node {
  name: "rnn/BasicLSTMCellZeroState/Const_4"
  op: "Const"
  input: "^add"
  attr {
    key: "_output_shapes"
    value {
      list {
        shape {
          dim {
            size: 1
          }
        }
      }
    }
  }
  attr {
    key: "dtype"
    value {
      type: DT_INT32
    }
  }
  attr {
    key: "value"
    value {
      tensor {
        dtype: DT_INT32
        tensor_shape {
          dim {
            size: 1
          }
        }
        int_val: 128
      }
    }
  }
}
node {
  name: "rnn/BasicLSTMCellZeroState/Const_5"
  op: "Const"
  input: "^add"
  attr {
    key: "_output_shapes"
    value {
      list {
        shape {
          dim {
            size: 1
          }
        }
      }
    }
  }
  attr {
    key: "dtype"
    value {
      type: DT_INT32
    }
  }
  attr {
    key: "value"
    value {
      tensor {
        dtype: DT_INT32
        tensor_shape {
          dim {
            size: 1
          }
        }
        int_val: 100
      }
    }
  }
}
node {
  name: "rnn/BasicLSTMCellZeroState/concat_1/axis"
  op: "Const"
  input: "^add"
  attr {
    key: "_output_shapes"
    value {
      list {
        shape {
        }
      }
    }
  }
  attr {
    key: "dtype"
    value {
      type: DT_INT32
    }
  }
  attr {
    key: "value"
    value {
      tensor {
        dtype: DT_INT32
        tensor_shape {
        }
        int_val: 0
      }
    }
  }
}
node {
  name: "rnn/BasicLSTMCellZeroState/concat_1"
  op: "ConcatV2"
  input: "rnn/BasicLSTMCellZeroState/Const_4"
  input: "rnn/BasicLSTMCellZeroState/Const_5"
  input: "rnn/BasicLSTMCellZeroState/concat_1/axis"
  attr {
    key: "N"
    value {
      i: 2
    }
  }
  attr {
    key: "T"
    value {
      type: DT_INT32
    }
  }
  attr {
    key: "Tidx"
    value {
      type: DT_INT32
    }
  }
  attr {
    key: "_output_shapes"
    value {
      list {
        shape {
          dim {
            size: 2
          }
        }
      }
    }
  }
}
node {
  name: "rnn/BasicLSTMCellZeroState/zeros_1/Const"
  op: "Const"
  input: "^add"
  attr {
    key: "_output_shapes"
    value {
      list {
        shape {
        }
      }
    }
  }
  attr {
    key: "dtype"
    value {
      type: DT_DOUBLE
    }
  }
  attr {
    key: "value"
    value {
      tensor {
        dtype: DT_DOUBLE
        tensor_shape {
        }
        double_val: 0.0
      }
    }
  }
}
node {
  name: "rnn/BasicLSTMCellZeroState/zeros_1"
  op: "Fill"
  input: "rnn/BasicLSTMCellZeroState/concat_1"
  input: "rnn/BasicLSTMCellZeroState/zeros_1/Const"
  attr {
    key: "T"
    value {
      type: DT_DOUBLE
    }
  }
  attr {
    key: "_output_shapes"
    value {
      list {
        shape {
          dim {
            size: 128
          }
          dim {
            size: 100
          }
        }
      }
    }
  }
}
node {
  name: "rnn/BasicLSTMCellZeroState/Const_6"
  op: "Const"
  input: "^add"
  attr {
    key: "_output_shapes"
    value {
      list {
        shape {
          dim {
            size: 1
          }
        }
      }
    }
  }
  attr {
    key: "dtype"
    value {
      type: DT_INT32
    }
  }
  attr {
    key: "value"
    value {
      tensor {
        dtype: DT_INT32
        tensor_shape {
          dim {
            size: 1
          }
        }
        int_val: 128
      }
    }
  }
}
node {
  name: "rnn/BasicLSTMCellZeroState/Const_7"
  op: "Const"
  input: "^add"
  attr {
    key: "_output_shapes"
    value {
      list {
        shape {
          dim {
            size: 1
          }
        }
      }
    }
  }
  attr {
    key: "dtype"
    value {
      type: DT_INT32
    }
  }
  attr {
    key: "value"
    value {
      tensor {
        dtype: DT_INT32
        tensor_shape {
          dim {
            size: 1
          }
        }
        int_val: 100
      }
    }
  }
}
node {
  name: "rnn/basic_lstm_cell/kernel/Initializer/random_uniform/shape"
  op: "Const"
  attr {
    key: "_class"
    value {
      list {
        s: "loc:@rnn/basic_lstm_cell/kernel"
      }
    }
  }
  attr {
    key: "_output_shapes"
    value {
      list {
        shape {
          dim {
            size: 2
          }
        }
      }
    }
  }
  attr {
    key: "dtype"
    value {
      type: DT_INT32
    }
  }
  attr {
    key: "value"
    value {
      tensor {
        dtype: DT_INT32
        tensor_shape {
          dim {
            size: 2
          }
        }
        tensor_content: "\227\000\000\000\220\001\000\000"
      }
    }
  }
}
node {
  name: "rnn/basic_lstm_cell/kernel/Initializer/random_uniform/min"
  op: "Const"
  attr {
    key: "_class"
    value {
      list {
        s: "loc:@rnn/basic_lstm_cell/kernel"
      }
    }
  }
  attr {
    key: "_output_shapes"
    value {
      list {
        shape {
        }
      }
    }
  }
  attr {
    key: "dtype"
    value {
      type: DT_DOUBLE
    }
  }
  attr {
    key: "value"
    value {
      tensor {
        dtype: DT_DOUBLE
        tensor_shape {
        }
        double_val: -0.10435177140809473
      }
    }
  }
}
node {
  name: "rnn/basic_lstm_cell/kernel/Initializer/random_uniform/max"
  op: "Const"
  attr {
    key: "_class"
    value {
      list {
        s: "loc:@rnn/basic_lstm_cell/kernel"
      }
    }
  }
  attr {
    key: "_output_shapes"
    value {
      list {
        shape {
        }
      }
    }
  }
  attr {
    key: "dtype"
    value {
      type: DT_DOUBLE
    }
  }
  attr {
    key: "value"
    value {
      tensor {
        dtype: DT_DOUBLE
        tensor_shape {
        }
        double_val: 0.10435177140809473
      }
    }
  }
}
node {
  name: "rnn/basic_lstm_cell/kernel/Initializer/random_uniform/RandomUniform"
  op: "RandomUniform"
  input: "rnn/basic_lstm_cell/kernel/Initializer/random_uniform/shape"
  attr {
    key: "T"
    value {
      type: DT_INT32
    }
  }
  attr {
    key: "_class"
    value {
      list {
        s: "loc:@rnn/basic_lstm_cell/kernel"
      }
    }
  }
  attr {
    key: "_output_shapes"
    value {
      list {
        shape {
          dim {
            size: 151
          }
          dim {
            size: 400
          }
        }
      }
    }
  }
  attr {
    key: "dtype"
    value {
      type: DT_DOUBLE
    }
  }
  attr {
    key: "seed"
    value {
      i: 0
    }
  }
  attr {
    key: "seed2"
    value {
      i: 0
    }
  }
}
node {
  name: "rnn/basic_lstm_cell/kernel/Initializer/random_uniform/sub"
  op: "Sub"
  input: "rnn/basic_lstm_cell/kernel/Initializer/random_uniform/max"
  input: "rnn/basic_lstm_cell/kernel/Initializer/random_uniform/min"
  attr {
    key: "T"
    value {
      type: DT_DOUBLE
    }
  }
  attr {
    key: "_class"
    value {
      list {
        s: "loc:@rnn/basic_lstm_cell/kernel"
      }
    }
  }
  attr {
    key: "_output_shapes"
    value {
      list {
        shape {
        }
      }
    }
  }
}
node {
  name: "rnn/basic_lstm_cell/kernel/Initializer/random_uniform/mul"
  op: "Mul"
  input: "rnn/basic_lstm_cell/kernel/Initializer/random_uniform/RandomUniform"
  input: "rnn/basic_lstm_cell/kernel/Initializer/random_uniform/sub"
  attr {
    key: "T"
    value {
      type: DT_DOUBLE
    }
  }
  attr {
    key: "_class"
    value {
      list {
        s: "loc:@rnn/basic_lstm_cell/kernel"
      }
    }
  }
  attr {
    key: "_output_shapes"
    value {
      list {
        shape {
          dim {
            size: 151
          }
          dim {
            size: 400
          }
        }
      }
    }
  }
}
node {
  name: "rnn/basic_lstm_cell/kernel/Initializer/random_uniform"
  op: "Add"
  input: "rnn/basic_lstm_cell/kernel/Initializer/random_uniform/mul"
  input: "rnn/basic_lstm_cell/kernel/Initializer/random_uniform/min"
  attr {
    key: "T"
    value {
      type: DT_DOUBLE
    }
  }
  attr {
    key: "_class"
    value {
      list {
        s: "loc:@rnn/basic_lstm_cell/kernel"
      }
    }
  }
  attr {
    key: "_output_shapes"
    value {
      list {
        shape {
          dim {
            size: 151
          }
          dim {
            size: 400
          }
        }
      }
    }
  }
}
node {
  name: "rnn/basic_lstm_cell/kernel"
  op: "VariableV2"
  attr {
    key: "_class"
    value {
      list {
        s: "loc:@rnn/basic_lstm_cell/kernel"
      }
    }
  }
  attr {
    key: "_output_shapes"
    value {
      list {
        shape {
          dim {
            size: 151
          }
          dim {
            size: 400
          }
        }
      }
    }
  }
  attr {
    key: "container"
    value {
      s: ""
    }
  }
  attr {
    key: "dtype"
    value {
      type: DT_DOUBLE
    }
  }
  attr {
    key: "shape"
    value {
      shape {
        dim {
          size: 151
        }
        dim {
          size: 400
        }
      }
    }
  }
  attr {
    key: "shared_name"
    value {
      s: ""
    }
  }
}
node {
  name: "rnn/basic_lstm_cell/kernel/Assign"
  op: "Assign"
  input: "rnn/basic_lstm_cell/kernel"
  input: "rnn/basic_lstm_cell/kernel/Initializer/random_uniform"
  attr {
    key: "T"
    value {
      type: DT_DOUBLE
    }
  }
  attr {
    key: "_class"
    value {
      list {
        s: "loc:@rnn/basic_lstm_cell/kernel"
      }
    }
  }
  attr {
    key: "_output_shapes"
    value {
      list {
        shape {
          dim {
            size: 151
          }
          dim {
            size: 400
          }
        }
      }
    }
  }
  attr {
    key: "use_locking"
    value {
      b: true
    }
  }
  attr {
    key: "validate_shape"
    value {
      b: true
    }
  }
}
node {
  name: "rnn/basic_lstm_cell/kernel/read"
  op: "Identity"
  input: "rnn/basic_lstm_cell/kernel"
  attr {
    key: "T"
    value {
      type: DT_DOUBLE
    }
  }
  attr {
    key: "_output_shapes"
    value {
      list {
        shape {
          dim {
            size: 151
          }
          dim {
            size: 400
          }
        }
      }
    }
  }
}
node {
  name: "rnn/basic_lstm_cell/bias/Initializer/Const"
  op: "Const"
  attr {
    key: "_class"
    value {
      list {
        s: "loc:@rnn/basic_lstm_cell/bias"
      }
    }
  }
  attr {
    key: "_output_shapes"
    value {
      list {
        shape {
          dim {
            size: 400
          }
        }
      }
    }
  }
  attr {
    key: "dtype"
    value {
      type: DT_DOUBLE
    }
  }
  attr {
    key: "value"
    value {
      tensor {
        dtype: DT_DOUBLE
        tensor_shape {
          dim {
            size: 400
          }
        }
        double_val: 0.0
      }
    }
  }
}
node {
  name: "rnn/basic_lstm_cell/bias"
  op: "VariableV2"
  attr {
    key: "_class"
    value {
      list {
        s: "loc:@rnn/basic_lstm_cell/bias"
      }
    }
  }
  attr {
    key: "_output_shapes"
    value {
      list {
        shape {
          dim {
            size: 400
          }
        }
      }
    }
  }
  attr {
    key: "container"
    value {
      s: ""
    }
  }
  attr {
    key: "dtype"
    value {
      type: DT_DOUBLE
    }
  }
  attr {
    key: "shape"
    value {
      shape {
        dim {
          size: 400
        }
      }
    }
  }
  attr {
    key: "shared_name"
    value {
      s: ""
    }
  }
}
node {
  name: "rnn/basic_lstm_cell/bias/Assign"
  op: "Assign"
  input: "rnn/basic_lstm_cell/bias"
  input: "rnn/basic_lstm_cell/bias/Initializer/Const"
  attr {
    key: "T"
    value {
      type: DT_DOUBLE
    }
  }
  attr {
    key: "_class"
    value {
      list {
        s: "loc:@rnn/basic_lstm_cell/bias"
      }
    }
  }
  attr {
    key: "_output_shapes"
    value {
      list {
        shape {
          dim {
            size: 400
          }
        }
      }
    }
  }
  attr {
    key: "use_locking"
    value {
      b: true
    }
  }
  attr {
    key: "validate_shape"
    value {
      b: true
    }
  }
}
node {
  name: "rnn/basic_lstm_cell/bias/read"
  op: "Identity"
  input: "rnn/basic_lstm_cell/bias"
  attr {
    key: "T"
    value {
      type: DT_DOUBLE
    }
  }
  attr {
    key: "_output_shapes"
    value {
      list {
        shape {
          dim {
            size: 400
          }
        }
      }
    }
  }
}
node {
  name: "rnn/rnn/basic_lstm_cell/concat/axis"
  op: "Const"
  input: "^add"
  attr {
    key: "_output_shapes"
    value {
      list {
        shape {
        }
      }
    }
  }
  attr {
    key: "dtype"
    value {
      type: DT_INT32
    }
  }
  attr {
    key: "value"
    value {
      tensor {
        dtype: DT_INT32
        tensor_shape {
        }
        int_val: 1
      }
    }
  }
}
node {
  name: "rnn/rnn/basic_lstm_cell/concat"
  op: "ConcatV2"
  input: "unstack"
  input: "rnn/BasicLSTMCellZeroState/zeros_1"
  input: "rnn/rnn/basic_lstm_cell/concat/axis"
  attr {
    key: "N"
    value {
      i: 2
    }
  }
  attr {
    key: "T"
    value {
      type: DT_DOUBLE
    }
  }
  attr {
    key: "Tidx"
    value {
      type: DT_INT32
    }
  }
  attr {
    key: "_output_shapes"
    value {
      list {
        shape {
          dim {
            size: 128
          }
          dim {
            size: 151
          }
        }
      }
    }
  }
}
node {
  name: "rnn/rnn/basic_lstm_cell/MatMul"
  op: "MatMul"
  input: "rnn/rnn/basic_lstm_cell/concat"
  input: "rnn/basic_lstm_cell/kernel/read"
  attr {
    key: "T"
    value {
      type: DT_DOUBLE
    }
  }
  attr {
    key: "_output_shapes"
    value {
      list {
        shape {
          dim {
            size: 128
          }
          dim {
            size: 400
          }
        }
      }
    }
  }
  attr {
    key: "transpose_a"
    value {
      b: false
    }
  }
  attr {
    key: "transpose_b"
    value {
      b: false
    }
  }
}
node {
  name: "rnn/rnn/basic_lstm_cell/BiasAdd"
  op: "BiasAdd"
  input: "rnn/rnn/basic_lstm_cell/MatMul"
  input: "rnn/basic_lstm_cell/bias/read"
  attr {
    key: "T"
    value {
      type: DT_DOUBLE
    }
  }
  attr {
    key: "_output_shapes"
    value {
      list {
        shape {
          dim {
            size: 128
          }
          dim {
            size: 400
          }
        }
      }
    }
  }
  attr {
    key: "data_format"
    value {
      s: "NHWC"
    }
  }
}
node {
  name: "rnn/rnn/basic_lstm_cell/Const"
  op: "Const"
  input: "^add"
  attr {
    key: "_output_shapes"
    value {
      list {
        shape {
        }
      }
    }
  }
  attr {
    key: "dtype"
    value {
      type: DT_INT32
    }
  }
  attr {
    key: "value"
    value {
      tensor {
        dtype: DT_INT32
        tensor_shape {
        }
        int_val: 4
      }
    }
  }
}
node {
  name: "rnn/rnn/basic_lstm_cell/split/split_dim"
  op: "Const"
  input: "^add"
  attr {
    key: "_output_shapes"
    value {
      list {
        shape {
        }
      }
    }
  }
  attr {
    key: "dtype"
    value {
      type: DT_INT32
    }
  }
  attr {
    key: "value"
    value {
      tensor {
        dtype: DT_INT32
        tensor_shape {
        }
        int_val: 1
      }
    }
  }
}
node {
  name: "rnn/rnn/basic_lstm_cell/split"
  op: "Split"
  input: "rnn/rnn/basic_lstm_cell/split/split_dim"
  input: "rnn/rnn/basic_lstm_cell/BiasAdd"
  attr {
    key: "T"
    value {
      type: DT_DOUBLE
    }
  }
  attr {
    key: "_output_shapes"
    value {
      list {
        shape {
          dim {
            size: 128
          }
          dim {
            size: 100
          }
        }
        shape {
          dim {
            size: 128
          }
          dim {
            size: 100
          }
        }
        shape {
          dim {
            size: 128
          }
          dim {
            size: 100
          }
        }
        shape {
          dim {
            size: 128
          }
          dim {
            size: 100
          }
        }
      }
    }
  }
  attr {
    key: "num_split"
    value {
      i: 4
    }
  }
}
node {
  name: "rnn/rnn/basic_lstm_cell/add/y"
  op: "Const"
  input: "^add"
  attr {
    key: "_output_shapes"
    value {
      list {
        shape {
        }
      }
    }
  }
  attr {
    key: "dtype"
    value {
      type: DT_DOUBLE
    }
  }
  attr {
    key: "value"
    value {
      tensor {
        dtype: DT_DOUBLE
        tensor_shape {
        }
        double_val: 1.0
      }
    }
  }
}
node {
  name: "rnn/rnn/basic_lstm_cell/add"
  op: "Add"
  input: "rnn/rnn/basic_lstm_cell/split:2"
  input: "rnn/rnn/basic_lstm_cell/add/y"
  attr {
    key: "T"
    value {
      type: DT_DOUBLE
    }
  }
  attr {
    key: "_output_shapes"
    value {
      list {
        shape {
          dim {
            size: 128
          }
          dim {
            size: 100
          }
        }
      }
    }
  }
}
node {
  name: "rnn/rnn/basic_lstm_cell/Sigmoid"
  op: "Sigmoid"
  input: "rnn/rnn/basic_lstm_cell/add"
  attr {
    key: "T"
    value {
      type: DT_DOUBLE
    }
  }
  attr {
    key: "_output_shapes"
    value {
      list {
        shape {
          dim {
            size: 128
          }
          dim {
            size: 100
          }
        }
      }
    }
  }
}
node {
  name: "rnn/rnn/basic_lstm_cell/mul"
  op: "Mul"
  input: "rnn/BasicLSTMCellZeroState/zeros"
  input: "rnn/rnn/basic_lstm_cell/Sigmoid"
  attr {
    key: "T"
    value {
      type: DT_DOUBLE
    }
  }
  attr {
    key: "_output_shapes"
    value {
      list {
        shape {
          dim {
            size: 128
          }
          dim {
            size: 100
          }
        }
      }
    }
  }
}
node {
  name: "rnn/rnn/basic_lstm_cell/Sigmoid_1"
  op: "Sigmoid"
  input: "rnn/rnn/basic_lstm_cell/split"
  attr {
    key: "T"
    value {
      type: DT_DOUBLE
    }
  }
  attr {
    key: "_output_shapes"
    value {
      list {
        shape {
          dim {
            size: 128
          }
          dim {
            size: 100
          }
        }
      }
    }
  }
}
node {
  name: "rnn/rnn/basic_lstm_cell/Tanh"
  op: "Tanh"
  input: "rnn/rnn/basic_lstm_cell/split:1"
  attr {
    key: "T"
    value {
      type: DT_DOUBLE
    }
  }
  attr {
    key: "_output_shapes"
    value {
      list {
        shape {
          dim {
            size: 128
          }
          dim {
            size: 100
          }
        }
      }
    }
  }
}
node {
  name: "rnn/rnn/basic_lstm_cell/mul_1"
  op: "Mul"
  input: "rnn/rnn/basic_lstm_cell/Sigmoid_1"
  input: "rnn/rnn/basic_lstm_cell/Tanh"
  attr {
    key: "T"
    value {
      type: DT_DOUBLE
    }
  }
  attr {
    key: "_output_shapes"
    value {
      list {
        shape {
          dim {
            size: 128
          }
          dim {
            size: 100
          }
        }
      }
    }
  }
}
node {
  name: "rnn/rnn/basic_lstm_cell/add_1"
  op: "Add"
  input: "rnn/rnn/basic_lstm_cell/mul"
  input: "rnn/rnn/basic_lstm_cell/mul_1"
  attr {
    key: "T"
    value {
      type: DT_DOUBLE
    }
  }
  attr {
    key: "_output_shapes"
    value {
      list {
        shape {
          dim {
            size: 128
          }
          dim {
            size: 100
          }
        }
      }
    }
  }
}
node {
  name: "rnn/rnn/basic_lstm_cell/Tanh_1"
  op: "Tanh"
  input: "rnn/rnn/basic_lstm_cell/add_1"
  attr {
    key: "T"
    value {
      type: DT_DOUBLE
    }
  }
  attr {
    key: "_output_shapes"
    value {
      list {
        shape {
          dim {
            size: 128
          }
          dim {
            size: 100
          }
        }
      }
    }
  }
}
node {
  name: "rnn/rnn/basic_lstm_cell/Sigmoid_2"
  op: "Sigmoid"
  input: "rnn/rnn/basic_lstm_cell/split:3"
  attr {
    key: "T"
    value {
      type: DT_DOUBLE
    }
  }
  attr {
    key: "_output_shapes"
    value {
      list {
        shape {
          dim {
            size: 128
          }
          dim {
            size: 100
          }
        }
      }
    }
  }
}
node {
  name: "rnn/rnn/basic_lstm_cell/mul_2"
  op: "Mul"
  input: "rnn/rnn/basic_lstm_cell/Tanh_1"
  input: "rnn/rnn/basic_lstm_cell/Sigmoid_2"
  attr {
    key: "T"
    value {
      type: DT_DOUBLE
    }
  }
  attr {
    key: "_output_shapes"
    value {
      list {
        shape {
          dim {
            size: 128
          }
          dim {
            size: 100
          }
        }
      }
    }
  }
}
node {
  name: "rnn/rnn/basic_lstm_cell/concat_1/axis"
  op: "Const"
  input: "^add"
  attr {
    key: "_output_shapes"
    value {
      list {
        shape {
        }
      }
    }
  }
  attr {
    key: "dtype"
    value {
      type: DT_INT32
    }
  }
  attr {
    key: "value"
    value {
      tensor {
        dtype: DT_INT32
        tensor_shape {
        }
        int_val: 1
      }
    }
  }
}
node {
  name: "rnn/rnn/basic_lstm_cell/concat_1"
  op: "ConcatV2"
  input: "unstack:1"
  input: "rnn/rnn/basic_lstm_cell/mul_2"
  input: "rnn/rnn/basic_lstm_cell/concat_1/axis"
  attr {
    key: "N"
    value {
      i: 2
    }
  }
  attr {
    key: "T"
    value {
      type: DT_DOUBLE
    }
  }
  attr {
    key: "Tidx"
    value {
      type: DT_INT32
    }
  }
  attr {
    key: "_output_shapes"
    value {
      list {
        shape {
          dim {
            size: 128
          }
          dim {
            size: 151
          }
        }
      }
    }
  }
}
node {
  name: "rnn/rnn/basic_lstm_cell/MatMul_1"
  op: "MatMul"
  input: "rnn/rnn/basic_lstm_cell/concat_1"
  input: "rnn/basic_lstm_cell/kernel/read"
  attr {
    key: "T"
    value {
      type: DT_DOUBLE
    }
  }
  attr {
    key: "_output_shapes"
    value {
      list {
        shape {
          dim {
            size: 128
          }
          dim {
            size: 400
          }
        }
      }
    }
  }
  attr {
    key: "transpose_a"
    value {
      b: false
    }
  }
  attr {
    key: "transpose_b"
    value {
      b: false
    }
  }
}
node {
  name: "rnn/rnn/basic_lstm_cell/BiasAdd_1"
  op: "BiasAdd"
  input: "rnn/rnn/basic_lstm_cell/MatMul_1"
  input: "rnn/basic_lstm_cell/bias/read"
  attr {
    key: "T"
    value {
      type: DT_DOUBLE
    }
  }
  attr {
    key: "_output_shapes"
    value {
      list {
        shape {
          dim {
            size: 128
          }
          dim {
            size: 400
          }
        }
      }
    }
  }
  attr {
    key: "data_format"
    value {
      s: "NHWC"
    }
  }
}
node {
  name: "rnn/rnn/basic_lstm_cell/Const_1"
  op: "Const"
  input: "^add"
  attr {
    key: "_output_shapes"
    value {
      list {
        shape {
        }
      }
    }
  }
  attr {
    key: "dtype"
    value {
      type: DT_INT32
    }
  }
  attr {
    key: "value"
    value {
      tensor {
        dtype: DT_INT32
        tensor_shape {
        }
        int_val: 4
      }
    }
  }
}
node {
  name: "rnn/rnn/basic_lstm_cell/split_1/split_dim"
  op: "Const"
  input: "^add"
  attr {
    key: "_output_shapes"
    value {
      list {
        shape {
        }
      }
    }
  }
  attr {
    key: "dtype"
    value {
      type: DT_INT32
    }
  }
  attr {
    key: "value"
    value {
      tensor {
        dtype: DT_INT32
        tensor_shape {
        }
        int_val: 1
      }
    }
  }
}
node {
  name: "rnn/rnn/basic_lstm_cell/split_1"
  op: "Split"
  input: "rnn/rnn/basic_lstm_cell/split_1/split_dim"
  input: "rnn/rnn/basic_lstm_cell/BiasAdd_1"
  attr {
    key: "T"
    value {
      type: DT_DOUBLE
    }
  }
  attr {
    key: "_output_shapes"
    value {
      list {
        shape {
          dim {
            size: 128
          }
          dim {
            size: 100
          }
        }
        shape {
          dim {
            size: 128
          }
          dim {
            size: 100
          }
        }
        shape {
          dim {
            size: 128
          }
          dim {
            size: 100
          }
        }
        shape {
          dim {
            size: 128
          }
          dim {
            size: 100
          }
        }
      }
    }
  }
  attr {
    key: "num_split"
    value {
      i: 4
    }
  }
}
node {
  name: "rnn/rnn/basic_lstm_cell/add_2/y"
  op: "Const"
  input: "^add"
  attr {
    key: "_output_shapes"
    value {
      list {
        shape {
        }
      }
    }
  }
  attr {
    key: "dtype"
    value {
      type: DT_DOUBLE
    }
  }
  attr {
    key: "value"
    value {
      tensor {
        dtype: DT_DOUBLE
        tensor_shape {
        }
        double_val: 1.0
      }
    }
  }
}
node {
  name: "rnn/rnn/basic_lstm_cell/add_2"
  op: "Add"
  input: "rnn/rnn/basic_lstm_cell/split_1:2"
  input: "rnn/rnn/basic_lstm_cell/add_2/y"
  attr {
    key: "T"
    value {
      type: DT_DOUBLE
    }
  }
  attr {
    key: "_output_shapes"
    value {
      list {
        shape {
          dim {
            size: 128
          }
          dim {
            size: 100
          }
        }
      }
    }
  }
}
node {
  name: "rnn/rnn/basic_lstm_cell/Sigmoid_3"
  op: "Sigmoid"
  input: "rnn/rnn/basic_lstm_cell/add_2"
  attr {
    key: "T"
    value {
      type: DT_DOUBLE
    }
  }
  attr {
    key: "_output_shapes"
    value {
      list {
        shape {
          dim {
            size: 128
          }
          dim {
            size: 100
          }
        }
      }
    }
  }
}
node {
  name: "rnn/rnn/basic_lstm_cell/mul_3"
  op: "Mul"
  input: "rnn/rnn/basic_lstm_cell/add_1"
  input: "rnn/rnn/basic_lstm_cell/Sigmoid_3"
  attr {
    key: "T"
    value {
      type: DT_DOUBLE
    }
  }
  attr {
    key: "_output_shapes"
    value {
      list {
        shape {
          dim {
            size: 128
          }
          dim {
            size: 100
          }
        }
      }
    }
  }
}
node {
  name: "rnn/rnn/basic_lstm_cell/Sigmoid_4"
  op: "Sigmoid"
  input: "rnn/rnn/basic_lstm_cell/split_1"
  attr {
    key: "T"
    value {
      type: DT_DOUBLE
    }
  }
  attr {
    key: "_output_shapes"
    value {
      list {
        shape {
          dim {
            size: 128
          }
          dim {
            size: 100
          }
        }
      }
    }
  }
}
node {
  name: "rnn/rnn/basic_lstm_cell/Tanh_2"
  op: "Tanh"
  input: "rnn/rnn/basic_lstm_cell/split_1:1"
  attr {
    key: "T"
    value {
      type: DT_DOUBLE
    }
  }
  attr {
    key: "_output_shapes"
    value {
      list {
        shape {
          dim {
            size: 128
          }
          dim {
            size: 100
          }
        }
      }
    }
  }
}
node {
  name: "rnn/rnn/basic_lstm_cell/mul_4"
  op: "Mul"
  input: "rnn/rnn/basic_lstm_cell/Sigmoid_4"
  input: "rnn/rnn/basic_lstm_cell/Tanh_2"
  attr {
    key: "T"
    value {
      type: DT_DOUBLE
    }
  }
  attr {
    key: "_output_shapes"
    value {
      list {
        shape {
          dim {
            size: 128
          }
          dim {
            size: 100
          }
        }
      }
    }
  }
}
node {
  name: "rnn/rnn/basic_lstm_cell/add_3"
  op: "Add"
  input: "rnn/rnn/basic_lstm_cell/mul_3"
  input: "rnn/rnn/basic_lstm_cell/mul_4"
  attr {
    key: "T"
    value {
      type: DT_DOUBLE
    }
  }
  attr {
    key: "_output_shapes"
    value {
      list {
        shape {
          dim {
            size: 128
          }
          dim {
            size: 100
          }
        }
      }
    }
  }
}
node {
  name: "rnn/rnn/basic_lstm_cell/Tanh_3"
  op: "Tanh"
  input: "rnn/rnn/basic_lstm_cell/add_3"
  attr {
    key: "T"
    value {
      type: DT_DOUBLE
    }
  }
  attr {
    key: "_output_shapes"
    value {
      list {
        shape {
          dim {
            size: 128
          }
          dim {
            size: 100
          }
        }
      }
    }
  }
}
node {
  name: "rnn/rnn/basic_lstm_cell/Sigmoid_5"
  op: "Sigmoid"
  input: "rnn/rnn/basic_lstm_cell/split_1:3"
  attr {
    key: "T"
    value {
      type: DT_DOUBLE
    }
  }
  attr {
    key: "_output_shapes"
    value {
      list {
        shape {
          dim {
            size: 128
          }
          dim {
            size: 100
          }
        }
      }
    }
  }
}
node {
  name: "rnn/rnn/basic_lstm_cell/mul_5"
  op: "Mul"
  input: "rnn/rnn/basic_lstm_cell/Tanh_3"
  input: "rnn/rnn/basic_lstm_cell/Sigmoid_5"
  attr {
    key: "T"
    value {
      type: DT_DOUBLE
    }
  }
  attr {
    key: "_output_shapes"
    value {
      list {
        shape {
          dim {
            size: 128
          }
          dim {
            size: 100
          }
        }
      }
    }
  }
}
node {
  name: "rnn/rnn/basic_lstm_cell/concat_2/axis"
  op: "Const"
  input: "^add"
  attr {
    key: "_output_shapes"
    value {
      list {
        shape {
        }
      }
    }
  }
  attr {
    key: "dtype"
    value {
      type: DT_INT32
    }
  }
  attr {
    key: "value"
    value {
      tensor {
        dtype: DT_INT32
        tensor_shape {
        }
        int_val: 1
      }
    }
  }
}
node {
  name: "rnn/rnn/basic_lstm_cell/concat_2"
  op: "ConcatV2"
  input: "unstack:2"
  input: "rnn/rnn/basic_lstm_cell/mul_5"
  input: "rnn/rnn/basic_lstm_cell/concat_2/axis"
  attr {
    key: "N"
    value {
      i: 2
    }
  }
  attr {
    key: "T"
    value {
      type: DT_DOUBLE
    }
  }
  attr {
    key: "Tidx"
    value {
      type: DT_INT32
    }
  }
  attr {
    key: "_output_shapes"
    value {
      list {
        shape {
          dim {
            size: 128
          }
          dim {
            size: 151
          }
        }
      }
    }
  }
}
node {
  name: "rnn/rnn/basic_lstm_cell/MatMul_2"
  op: "MatMul"
  input: "rnn/rnn/basic_lstm_cell/concat_2"
  input: "rnn/basic_lstm_cell/kernel/read"
  attr {
    key: "T"
    value {
      type: DT_DOUBLE
    }
  }
  attr {
    key: "_output_shapes"
    value {
      list {
        shape {
          dim {
            size: 128
          }
          dim {
            size: 400
          }
        }
      }
    }
  }
  attr {
    key: "transpose_a"
    value {
      b: false
    }
  }
  attr {
    key: "transpose_b"
    value {
      b: false
    }
  }
}
node {
  name: "rnn/rnn/basic_lstm_cell/BiasAdd_2"
  op: "BiasAdd"
  input: "rnn/rnn/basic_lstm_cell/MatMul_2"
  input: "rnn/basic_lstm_cell/bias/read"
  attr {
    key: "T"
    value {
      type: DT_DOUBLE
    }
  }
  attr {
    key: "_output_shapes"
    value {
      list {
        shape {
          dim {
            size: 128
          }
          dim {
            size: 400
          }
        }
      }
    }
  }
  attr {
    key: "data_format"
    value {
      s: "NHWC"
    }
  }
}
node {
  name: "rnn/rnn/basic_lstm_cell/Const_2"
  op: "Const"
  input: "^add"
  attr {
    key: "_output_shapes"
    value {
      list {
        shape {
        }
      }
    }
  }
  attr {
    key: "dtype"
    value {
      type: DT_INT32
    }
  }
  attr {
    key: "value"
    value {
      tensor {
        dtype: DT_INT32
        tensor_shape {
        }
        int_val: 4
      }
    }
  }
}
node {
  name: "rnn/rnn/basic_lstm_cell/split_2/split_dim"
  op: "Const"
  input: "^add"
  attr {
    key: "_output_shapes"
    value {
      list {
        shape {
        }
      }
    }
  }
  attr {
    key: "dtype"
    value {
      type: DT_INT32
    }
  }
  attr {
    key: "value"
    value {
      tensor {
        dtype: DT_INT32
        tensor_shape {
        }
        int_val: 1
      }
    }
  }
}
node {
  name: "rnn/rnn/basic_lstm_cell/split_2"
  op: "Split"
  input: "rnn/rnn/basic_lstm_cell/split_2/split_dim"
  input: "rnn/rnn/basic_lstm_cell/BiasAdd_2"
  attr {
    key: "T"
    value {
      type: DT_DOUBLE
    }
  }
  attr {
    key: "_output_shapes"
    value {
      list {
        shape {
          dim {
            size: 128
          }
          dim {
            size: 100
          }
        }
        shape {
          dim {
            size: 128
          }
          dim {
            size: 100
          }
        }
        shape {
          dim {
            size: 128
          }
          dim {
            size: 100
          }
        }
        shape {
          dim {
            size: 128
          }
          dim {
            size: 100
          }
        }
      }
    }
  }
  attr {
    key: "num_split"
    value {
      i: 4
    }
  }
}
node {
  name: "rnn/rnn/basic_lstm_cell/add_4/y"
  op: "Const"
  input: "^add"
  attr {
    key: "_output_shapes"
    value {
      list {
        shape {
        }
      }
    }
  }
  attr {
    key: "dtype"
    value {
      type: DT_DOUBLE
    }
  }
  attr {
    key: "value"
    value {
      tensor {
        dtype: DT_DOUBLE
        tensor_shape {
        }
        double_val: 1.0
      }
    }
  }
}
node {
  name: "rnn/rnn/basic_lstm_cell/add_4"
  op: "Add"
  input: "rnn/rnn/basic_lstm_cell/split_2:2"
  input: "rnn/rnn/basic_lstm_cell/add_4/y"
  attr {
    key: "T"
    value {
      type: DT_DOUBLE
    }
  }
  attr {
    key: "_output_shapes"
    value {
      list {
        shape {
          dim {
            size: 128
          }
          dim {
            size: 100
          }
        }
      }
    }
  }
}
node {
  name: "rnn/rnn/basic_lstm_cell/Sigmoid_6"
  op: "Sigmoid"
  input: "rnn/rnn/basic_lstm_cell/add_4"
  attr {
    key: "T"
    value {
      type: DT_DOUBLE
    }
  }
  attr {
    key: "_output_shapes"
    value {
      list {
        shape {
          dim {
            size: 128
          }
          dim {
            size: 100
          }
        }
      }
    }
  }
}
node {
  name: "rnn/rnn/basic_lstm_cell/mul_6"
  op: "Mul"
  input: "rnn/rnn/basic_lstm_cell/add_3"
  input: "rnn/rnn/basic_lstm_cell/Sigmoid_6"
  attr {
    key: "T"
    value {
      type: DT_DOUBLE
    }
  }
  attr {
    key: "_output_shapes"
    value {
      list {
        shape {
          dim {
            size: 128
          }
          dim {
            size: 100
          }
        }
      }
    }
  }
}
node {
  name: "rnn/rnn/basic_lstm_cell/Sigmoid_7"
  op: "Sigmoid"
  input: "rnn/rnn/basic_lstm_cell/split_2"
  attr {
    key: "T"
    value {
      type: DT_DOUBLE
    }
  }
  attr {
    key: "_output_shapes"
    value {
      list {
        shape {
          dim {
            size: 128
          }
          dim {
            size: 100
          }
        }
      }
    }
  }
}
node {
  name: "rnn/rnn/basic_lstm_cell/Tanh_4"
  op: "Tanh"
  input: "rnn/rnn/basic_lstm_cell/split_2:1"
  attr {
    key: "T"
    value {
      type: DT_DOUBLE
    }
  }
  attr {
    key: "_output_shapes"
    value {
      list {
        shape {
          dim {
            size: 128
          }
          dim {
            size: 100
          }
        }
      }
    }
  }
}
node {
  name: "rnn/rnn/basic_lstm_cell/mul_7"
  op: "Mul"
  input: "rnn/rnn/basic_lstm_cell/Sigmoid_7"
  input: "rnn/rnn/basic_lstm_cell/Tanh_4"
  attr {
    key: "T"
    value {
      type: DT_DOUBLE
    }
  }
  attr {
    key: "_output_shapes"
    value {
      list {
        shape {
          dim {
            size: 128
          }
          dim {
            size: 100
          }
        }
      }
    }
  }
}
node {
  name: "rnn/rnn/basic_lstm_cell/add_5"
  op: "Add"
  input: "rnn/rnn/basic_lstm_cell/mul_6"
  input: "rnn/rnn/basic_lstm_cell/mul_7"
  attr {
    key: "T"
    value {
      type: DT_DOUBLE
    }
  }
  attr {
    key: "_output_shapes"
    value {
      list {
        shape {
          dim {
            size: 128
          }
          dim {
            size: 100
          }
        }
      }
    }
  }
}
node {
  name: "rnn/rnn/basic_lstm_cell/Tanh_5"
  op: "Tanh"
  input: "rnn/rnn/basic_lstm_cell/add_5"
  attr {
    key: "T"
    value {
      type: DT_DOUBLE
    }
  }
  attr {
    key: "_output_shapes"
    value {
      list {
        shape {
          dim {
            size: 128
          }
          dim {
            size: 100
          }
        }
      }
    }
  }
}
node {
  name: "rnn/rnn/basic_lstm_cell/Sigmoid_8"
  op: "Sigmoid"
  input: "rnn/rnn/basic_lstm_cell/split_2:3"
  attr {
    key: "T"
    value {
      type: DT_DOUBLE
    }
  }
  attr {
    key: "_output_shapes"
    value {
      list {
        shape {
          dim {
            size: 128
          }
          dim {
            size: 100
          }
        }
      }
    }
  }
}
node {
  name: "rnn/rnn/basic_lstm_cell/mul_8"
  op: "Mul"
  input: "rnn/rnn/basic_lstm_cell/Tanh_5"
  input: "rnn/rnn/basic_lstm_cell/Sigmoid_8"
  attr {
    key: "T"
    value {
      type: DT_DOUBLE
    }
  }
  attr {
    key: "_output_shapes"
    value {
      list {
        shape {
          dim {
            size: 128
          }
          dim {
            size: 100
          }
        }
      }
    }
  }
}
node {
  name: "rnn/rnn/basic_lstm_cell/concat_3/axis"
  op: "Const"
  input: "^add"
  attr {
    key: "_output_shapes"
    value {
      list {
        shape {
        }
      }
    }
  }
  attr {
    key: "dtype"
    value {
      type: DT_INT32
    }
  }
  attr {
    key: "value"
    value {
      tensor {
        dtype: DT_INT32
        tensor_shape {
        }
        int_val: 1
      }
    }
  }
}
node {
  name: "rnn/rnn/basic_lstm_cell/concat_3"
  op: "ConcatV2"
  input: "unstack:3"
  input: "rnn/rnn/basic_lstm_cell/mul_8"
  input: "rnn/rnn/basic_lstm_cell/concat_3/axis"
  attr {
    key: "N"
    value {
      i: 2
    }
  }
  attr {
    key: "T"
    value {
      type: DT_DOUBLE
    }
  }
  attr {
    key: "Tidx"
    value {
      type: DT_INT32
    }
  }
  attr {
    key: "_output_shapes"
    value {
      list {
        shape {
          dim {
            size: 128
          }
          dim {
            size: 151
          }
        }
      }
    }
  }
}
node {
  name: "rnn/rnn/basic_lstm_cell/MatMul_3"
  op: "MatMul"
  input: "rnn/rnn/basic_lstm_cell/concat_3"
  input: "rnn/basic_lstm_cell/kernel/read"
  attr {
    key: "T"
    value {
      type: DT_DOUBLE
    }
  }
  attr {
    key: "_output_shapes"
    value {
      list {
        shape {
          dim {
            size: 128
          }
          dim {
            size: 400
          }
        }
      }
    }
  }
  attr {
    key: "transpose_a"
    value {
      b: false
    }
  }
  attr {
    key: "transpose_b"
    value {
      b: false
    }
  }
}
node {
  name: "rnn/rnn/basic_lstm_cell/BiasAdd_3"
  op: "BiasAdd"
  input: "rnn/rnn/basic_lstm_cell/MatMul_3"
  input: "rnn/basic_lstm_cell/bias/read"
  attr {
    key: "T"
    value {
      type: DT_DOUBLE
    }
  }
  attr {
    key: "_output_shapes"
    value {
      list {
        shape {
          dim {
            size: 128
          }
          dim {
            size: 400
          }
        }
      }
    }
  }
  attr {
    key: "data_format"
    value {
      s: "NHWC"
    }
  }
}
node {
  name: "rnn/rnn/basic_lstm_cell/Const_3"
  op: "Const"
  input: "^add"
  attr {
    key: "_output_shapes"
    value {
      list {
        shape {
        }
      }
    }
  }
  attr {
    key: "dtype"
    value {
      type: DT_INT32
    }
  }
  attr {
    key: "value"
    value {
      tensor {
        dtype: DT_INT32
        tensor_shape {
        }
        int_val: 4
      }
    }
  }
}
node {
  name: "rnn/rnn/basic_lstm_cell/split_3/split_dim"
  op: "Const"
  input: "^add"
  attr {
    key: "_output_shapes"
    value {
      list {
        shape {
        }
      }
    }
  }
  attr {
    key: "dtype"
    value {
      type: DT_INT32
    }
  }
  attr {
    key: "value"
    value {
      tensor {
        dtype: DT_INT32
        tensor_shape {
        }
        int_val: 1
      }
    }
  }
}
node {
  name: "rnn/rnn/basic_lstm_cell/split_3"
  op: "Split"
  input: "rnn/rnn/basic_lstm_cell/split_3/split_dim"
  input: "rnn/rnn/basic_lstm_cell/BiasAdd_3"
  attr {
    key: "T"
    value {
      type: DT_DOUBLE
    }
  }
  attr {
    key: "_output_shapes"
    value {
      list {
        shape {
          dim {
            size: 128
          }
          dim {
            size: 100
          }
        }
        shape {
          dim {
            size: 128
          }
          dim {
            size: 100
          }
        }
        shape {
          dim {
            size: 128
          }
          dim {
            size: 100
          }
        }
        shape {
          dim {
            size: 128
          }
          dim {
            size: 100
          }
        }
      }
    }
  }
  attr {
    key: "num_split"
    value {
      i: 4
    }
  }
}
node {
  name: "rnn/rnn/basic_lstm_cell/add_6/y"
  op: "Const"
  input: "^add"
  attr {
    key: "_output_shapes"
    value {
      list {
        shape {
        }
      }
    }
  }
  attr {
    key: "dtype"
    value {
      type: DT_DOUBLE
    }
  }
  attr {
    key: "value"
    value {
      tensor {
        dtype: DT_DOUBLE
        tensor_shape {
        }
        double_val: 1.0
      }
    }
  }
}
node {
  name: "rnn/rnn/basic_lstm_cell/add_6"
  op: "Add"
  input: "rnn/rnn/basic_lstm_cell/split_3:2"
  input: "rnn/rnn/basic_lstm_cell/add_6/y"
  attr {
    key: "T"
    value {
      type: DT_DOUBLE
    }
  }
  attr {
    key: "_output_shapes"
    value {
      list {
        shape {
          dim {
            size: 128
          }
          dim {
            size: 100
          }
        }
      }
    }
  }
}
node {
  name: "rnn/rnn/basic_lstm_cell/Sigmoid_9"
  op: "Sigmoid"
  input: "rnn/rnn/basic_lstm_cell/add_6"
  attr {
    key: "T"
    value {
      type: DT_DOUBLE
    }
  }
  attr {
    key: "_output_shapes"
    value {
      list {
        shape {
          dim {
            size: 128
          }
          dim {
            size: 100
          }
        }
      }
    }
  }
}
node {
  name: "rnn/rnn/basic_lstm_cell/mul_9"
  op: "Mul"
  input: "rnn/rnn/basic_lstm_cell/add_5"
  input: "rnn/rnn/basic_lstm_cell/Sigmoid_9"
  attr {
    key: "T"
    value {
      type: DT_DOUBLE
    }
  }
  attr {
    key: "_output_shapes"
    value {
      list {
        shape {
          dim {
            size: 128
          }
          dim {
            size: 100
          }
        }
      }
    }
  }
}
node {
  name: "rnn/rnn/basic_lstm_cell/Sigmoid_10"
  op: "Sigmoid"
  input: "rnn/rnn/basic_lstm_cell/split_3"
  attr {
    key: "T"
    value {
      type: DT_DOUBLE
    }
  }
  attr {
    key: "_output_shapes"
    value {
      list {
        shape {
          dim {
            size: 128
          }
          dim {
            size: 100
          }
        }
      }
    }
  }
}
node {
  name: "rnn/rnn/basic_lstm_cell/Tanh_6"
  op: "Tanh"
  input: "rnn/rnn/basic_lstm_cell/split_3:1"
  attr {
    key: "T"
    value {
      type: DT_DOUBLE
    }
  }
  attr {
    key: "_output_shapes"
    value {
      list {
        shape {
          dim {
            size: 128
          }
          dim {
            size: 100
          }
        }
      }
    }
  }
}
node {
  name: "rnn/rnn/basic_lstm_cell/mul_10"
  op: "Mul"
  input: "rnn/rnn/basic_lstm_cell/Sigmoid_10"
  input: "rnn/rnn/basic_lstm_cell/Tanh_6"
  attr {
    key: "T"
    value {
      type: DT_DOUBLE
    }
  }
  attr {
    key: "_output_shapes"
    value {
      list {
        shape {
          dim {
            size: 128
          }
          dim {
            size: 100
          }
        }
      }
    }
  }
}
node {
  name: "rnn/rnn/basic_lstm_cell/add_7"
  op: "Add"
  input: "rnn/rnn/basic_lstm_cell/mul_9"
  input: "rnn/rnn/basic_lstm_cell/mul_10"
  attr {
    key: "T"
    value {
      type: DT_DOUBLE
    }
  }
  attr {
    key: "_output_shapes"
    value {
      list {
        shape {
          dim {
            size: 128
          }
          dim {
            size: 100
          }
        }
      }
    }
  }
}
node {
  name: "rnn/rnn/basic_lstm_cell/Tanh_7"
  op: "Tanh"
  input: "rnn/rnn/basic_lstm_cell/add_7"
  attr {
    key: "T"
    value {
      type: DT_DOUBLE
    }
  }
  attr {
    key: "_output_shapes"
    value {
      list {
        shape {
          dim {
            size: 128
          }
          dim {
            size: 100
          }
        }
      }
    }
  }
}
node {
  name: "rnn/rnn/basic_lstm_cell/Sigmoid_11"
  op: "Sigmoid"
  input: "rnn/rnn/basic_lstm_cell/split_3:3"
  attr {
    key: "T"
    value {
      type: DT_DOUBLE
    }
  }
  attr {
    key: "_output_shapes"
    value {
      list {
        shape {
          dim {
            size: 128
          }
          dim {
            size: 100
          }
        }
      }
    }
  }
}
node {
  name: "rnn/rnn/basic_lstm_cell/mul_11"
  op: "Mul"
  input: "rnn/rnn/basic_lstm_cell/Tanh_7"
  input: "rnn/rnn/basic_lstm_cell/Sigmoid_11"
  attr {
    key: "T"
    value {
      type: DT_DOUBLE
    }
  }
  attr {
    key: "_output_shapes"
    value {
      list {
        shape {
          dim {
            size: 128
          }
          dim {
            size: 100
          }
        }
      }
    }
  }
}
node {
  name: "rnn/rnn/basic_lstm_cell/concat_4/axis"
  op: "Const"
  input: "^add"
  attr {
    key: "_output_shapes"
    value {
      list {
        shape {
        }
      }
    }
  }
  attr {
    key: "dtype"
    value {
      type: DT_INT32
    }
  }
  attr {
    key: "value"
    value {
      tensor {
        dtype: DT_INT32
        tensor_shape {
        }
        int_val: 1
      }
    }
  }
}
node {
  name: "rnn/rnn/basic_lstm_cell/concat_4"
  op: "ConcatV2"
  input: "unstack:4"
  input: "rnn/rnn/basic_lstm_cell/mul_11"
  input: "rnn/rnn/basic_lstm_cell/concat_4/axis"
  attr {
    key: "N"
    value {
      i: 2
    }
  }
  attr {
    key: "T"
    value {
      type: DT_DOUBLE
    }
  }
  attr {
    key: "Tidx"
    value {
      type: DT_INT32
    }
  }
  attr {
    key: "_output_shapes"
    value {
      list {
        shape {
          dim {
            size: 128
          }
          dim {
            size: 151
          }
        }
      }
    }
  }
}
node {
  name: "rnn/rnn/basic_lstm_cell/MatMul_4"
  op: "MatMul"
  input: "rnn/rnn/basic_lstm_cell/concat_4"
  input: "rnn/basic_lstm_cell/kernel/read"
  attr {
    key: "T"
    value {
      type: DT_DOUBLE
    }
  }
  attr {
    key: "_output_shapes"
    value {
      list {
        shape {
          dim {
            size: 128
          }
          dim {
            size: 400
          }
        }
      }
    }
  }
  attr {
    key: "transpose_a"
    value {
      b: false
    }
  }
  attr {
    key: "transpose_b"
    value {
      b: false
    }
  }
}
node {
  name: "rnn/rnn/basic_lstm_cell/BiasAdd_4"
  op: "BiasAdd"
  input: "rnn/rnn/basic_lstm_cell/MatMul_4"
  input: "rnn/basic_lstm_cell/bias/read"
  attr {
    key: "T"
    value {
      type: DT_DOUBLE
    }
  }
  attr {
    key: "_output_shapes"
    value {
      list {
        shape {
          dim {
            size: 128
          }
          dim {
            size: 400
          }
        }
      }
    }
  }
  attr {
    key: "data_format"
    value {
      s: "NHWC"
    }
  }
}
node {
  name: "rnn/rnn/basic_lstm_cell/Const_4"
  op: "Const"
  input: "^add"
  attr {
    key: "_output_shapes"
    value {
      list {
        shape {
        }
      }
    }
  }
  attr {
    key: "dtype"
    value {
      type: DT_INT32
    }
  }
  attr {
    key: "value"
    value {
      tensor {
        dtype: DT_INT32
        tensor_shape {
        }
        int_val: 4
      }
    }
  }
}
node {
  name: "rnn/rnn/basic_lstm_cell/split_4/split_dim"
  op: "Const"
  input: "^add"
  attr {
    key: "_output_shapes"
    value {
      list {
        shape {
        }
      }
    }
  }
  attr {
    key: "dtype"
    value {
      type: DT_INT32
    }
  }
  attr {
    key: "value"
    value {
      tensor {
        dtype: DT_INT32
        tensor_shape {
        }
        int_val: 1
      }
    }
  }
}
node {
  name: "rnn/rnn/basic_lstm_cell/split_4"
  op: "Split"
  input: "rnn/rnn/basic_lstm_cell/split_4/split_dim"
  input: "rnn/rnn/basic_lstm_cell/BiasAdd_4"
  attr {
    key: "T"
    value {
      type: DT_DOUBLE
    }
  }
  attr {
    key: "_output_shapes"
    value {
      list {
        shape {
          dim {
            size: 128
          }
          dim {
            size: 100
          }
        }
        shape {
          dim {
            size: 128
          }
          dim {
            size: 100
          }
        }
        shape {
          dim {
            size: 128
          }
          dim {
            size: 100
          }
        }
        shape {
          dim {
            size: 128
          }
          dim {
            size: 100
          }
        }
      }
    }
  }
  attr {
    key: "num_split"
    value {
      i: 4
    }
  }
}
node {
  name: "rnn/rnn/basic_lstm_cell/add_8/y"
  op: "Const"
  input: "^add"
  attr {
    key: "_output_shapes"
    value {
      list {
        shape {
        }
      }
    }
  }
  attr {
    key: "dtype"
    value {
      type: DT_DOUBLE
    }
  }
  attr {
    key: "value"
    value {
      tensor {
        dtype: DT_DOUBLE
        tensor_shape {
        }
        double_val: 1.0
      }
    }
  }
}
node {
  name: "rnn/rnn/basic_lstm_cell/add_8"
  op: "Add"
  input: "rnn/rnn/basic_lstm_cell/split_4:2"
  input: "rnn/rnn/basic_lstm_cell/add_8/y"
  attr {
    key: "T"
    value {
      type: DT_DOUBLE
    }
  }
  attr {
    key: "_output_shapes"
    value {
      list {
        shape {
          dim {
            size: 128
          }
          dim {
            size: 100
          }
        }
      }
    }
  }
}
node {
  name: "rnn/rnn/basic_lstm_cell/Sigmoid_12"
  op: "Sigmoid"
  input: "rnn/rnn/basic_lstm_cell/add_8"
  attr {
    key: "T"
    value {
      type: DT_DOUBLE
    }
  }
  attr {
    key: "_output_shapes"
    value {
      list {
        shape {
          dim {
            size: 128
          }
          dim {
            size: 100
          }
        }
      }
    }
  }
}
node {
  name: "rnn/rnn/basic_lstm_cell/mul_12"
  op: "Mul"
  input: "rnn/rnn/basic_lstm_cell/add_7"
  input: "rnn/rnn/basic_lstm_cell/Sigmoid_12"
  attr {
    key: "T"
    value {
      type: DT_DOUBLE
    }
  }
  attr {
    key: "_output_shapes"
    value {
      list {
        shape {
          dim {
            size: 128
          }
          dim {
            size: 100
          }
        }
      }
    }
  }
}
node {
  name: "rnn/rnn/basic_lstm_cell/Sigmoid_13"
  op: "Sigmoid"
  input: "rnn/rnn/basic_lstm_cell/split_4"
  attr {
    key: "T"
    value {
      type: DT_DOUBLE
    }
  }
  attr {
    key: "_output_shapes"
    value {
      list {
        shape {
          dim {
            size: 128
          }
          dim {
            size: 100
          }
        }
      }
    }
  }
}
node {
  name: "rnn/rnn/basic_lstm_cell/Tanh_8"
  op: "Tanh"
  input: "rnn/rnn/basic_lstm_cell/split_4:1"
  attr {
    key: "T"
    value {
      type: DT_DOUBLE
    }
  }
  attr {
    key: "_output_shapes"
    value {
      list {
        shape {
          dim {
            size: 128
          }
          dim {
            size: 100
          }
        }
      }
    }
  }
}
node {
  name: "rnn/rnn/basic_lstm_cell/mul_13"
  op: "Mul"
  input: "rnn/rnn/basic_lstm_cell/Sigmoid_13"
  input: "rnn/rnn/basic_lstm_cell/Tanh_8"
  attr {
    key: "T"
    value {
      type: DT_DOUBLE
    }
  }
  attr {
    key: "_output_shapes"
    value {
      list {
        shape {
          dim {
            size: 128
          }
          dim {
            size: 100
          }
        }
      }
    }
  }
}
node {
  name: "rnn/rnn/basic_lstm_cell/add_9"
  op: "Add"
  input: "rnn/rnn/basic_lstm_cell/mul_12"
  input: "rnn/rnn/basic_lstm_cell/mul_13"
  attr {
    key: "T"
    value {
      type: DT_DOUBLE
    }
  }
  attr {
    key: "_output_shapes"
    value {
      list {
        shape {
          dim {
            size: 128
          }
          dim {
            size: 100
          }
        }
      }
    }
  }
}
node {
  name: "rnn/rnn/basic_lstm_cell/Tanh_9"
  op: "Tanh"
  input: "rnn/rnn/basic_lstm_cell/add_9"
  attr {
    key: "T"
    value {
      type: DT_DOUBLE
    }
  }
  attr {
    key: "_output_shapes"
    value {
      list {
        shape {
          dim {
            size: 128
          }
          dim {
            size: 100
          }
        }
      }
    }
  }
}
node {
  name: "rnn/rnn/basic_lstm_cell/Sigmoid_14"
  op: "Sigmoid"
  input: "rnn/rnn/basic_lstm_cell/split_4:3"
  attr {
    key: "T"
    value {
      type: DT_DOUBLE
    }
  }
  attr {
    key: "_output_shapes"
    value {
      list {
        shape {
          dim {
            size: 128
          }
          dim {
            size: 100
          }
        }
      }
    }
  }
}
node {
  name: "rnn/rnn/basic_lstm_cell/mul_14"
  op: "Mul"
  input: "rnn/rnn/basic_lstm_cell/Tanh_9"
  input: "rnn/rnn/basic_lstm_cell/Sigmoid_14"
  attr {
    key: "T"
    value {
      type: DT_DOUBLE
    }
  }
  attr {
    key: "_output_shapes"
    value {
      list {
        shape {
          dim {
            size: 128
          }
          dim {
            size: 100
          }
        }
      }
    }
  }
}
node {
  name: "rnn/rnn/basic_lstm_cell/concat_5/axis"
  op: "Const"
  input: "^add"
  attr {
    key: "_output_shapes"
    value {
      list {
        shape {
        }
      }
    }
  }
  attr {
    key: "dtype"
    value {
      type: DT_INT32
    }
  }
  attr {
    key: "value"
    value {
      tensor {
        dtype: DT_INT32
        tensor_shape {
        }
        int_val: 1
      }
    }
  }
}
node {
  name: "rnn/rnn/basic_lstm_cell/concat_5"
  op: "ConcatV2"
  input: "unstack:5"
  input: "rnn/rnn/basic_lstm_cell/mul_14"
  input: "rnn/rnn/basic_lstm_cell/concat_5/axis"
  attr {
    key: "N"
    value {
      i: 2
    }
  }
  attr {
    key: "T"
    value {
      type: DT_DOUBLE
    }
  }
  attr {
    key: "Tidx"
    value {
      type: DT_INT32
    }
  }
  attr {
    key: "_output_shapes"
    value {
      list {
        shape {
          dim {
            size: 128
          }
          dim {
            size: 151
          }
        }
      }
    }
  }
}
node {
  name: "rnn/rnn/basic_lstm_cell/MatMul_5"
  op: "MatMul"
  input: "rnn/rnn/basic_lstm_cell/concat_5"
  input: "rnn/basic_lstm_cell/kernel/read"
  attr {
    key: "T"
    value {
      type: DT_DOUBLE
    }
  }
  attr {
    key: "_output_shapes"
    value {
      list {
        shape {
          dim {
            size: 128
          }
          dim {
            size: 400
          }
        }
      }
    }
  }
  attr {
    key: "transpose_a"
    value {
      b: false
    }
  }
  attr {
    key: "transpose_b"
    value {
      b: false
    }
  }
}
node {
  name: "rnn/rnn/basic_lstm_cell/BiasAdd_5"
  op: "BiasAdd"
  input: "rnn/rnn/basic_lstm_cell/MatMul_5"
  input: "rnn/basic_lstm_cell/bias/read"
  attr {
    key: "T"
    value {
      type: DT_DOUBLE
    }
  }
  attr {
    key: "_output_shapes"
    value {
      list {
        shape {
          dim {
            size: 128
          }
          dim {
            size: 400
          }
        }
      }
    }
  }
  attr {
    key: "data_format"
    value {
      s: "NHWC"
    }
  }
}
node {
  name: "rnn/rnn/basic_lstm_cell/Const_5"
  op: "Const"
  input: "^add"
  attr {
    key: "_output_shapes"
    value {
      list {
        shape {
        }
      }
    }
  }
  attr {
    key: "dtype"
    value {
      type: DT_INT32
    }
  }
  attr {
    key: "value"
    value {
      tensor {
        dtype: DT_INT32
        tensor_shape {
        }
        int_val: 4
      }
    }
  }
}
node {
  name: "rnn/rnn/basic_lstm_cell/split_5/split_dim"
  op: "Const"
  input: "^add"
  attr {
    key: "_output_shapes"
    value {
      list {
        shape {
        }
      }
    }
  }
  attr {
    key: "dtype"
    value {
      type: DT_INT32
    }
  }
  attr {
    key: "value"
    value {
      tensor {
        dtype: DT_INT32
        tensor_shape {
        }
        int_val: 1
      }
    }
  }
}
node {
  name: "rnn/rnn/basic_lstm_cell/split_5"
  op: "Split"
  input: "rnn/rnn/basic_lstm_cell/split_5/split_dim"
  input: "rnn/rnn/basic_lstm_cell/BiasAdd_5"
  attr {
    key: "T"
    value {
      type: DT_DOUBLE
    }
  }
  attr {
    key: "_output_shapes"
    value {
      list {
        shape {
          dim {
            size: 128
          }
          dim {
            size: 100
          }
        }
        shape {
          dim {
            size: 128
          }
          dim {
            size: 100
          }
        }
        shape {
          dim {
            size: 128
          }
          dim {
            size: 100
          }
        }
        shape {
          dim {
            size: 128
          }
          dim {
            size: 100
          }
        }
      }
    }
  }
  attr {
    key: "num_split"
    value {
      i: 4
    }
  }
}
node {
  name: "rnn/rnn/basic_lstm_cell/add_10/y"
  op: "Const"
  input: "^add"
  attr {
    key: "_output_shapes"
    value {
      list {
        shape {
        }
      }
    }
  }
  attr {
    key: "dtype"
    value {
      type: DT_DOUBLE
    }
  }
  attr {
    key: "value"
    value {
      tensor {
        dtype: DT_DOUBLE
        tensor_shape {
        }
        double_val: 1.0
      }
    }
  }
}
node {
  name: "rnn/rnn/basic_lstm_cell/add_10"
  op: "Add"
  input: "rnn/rnn/basic_lstm_cell/split_5:2"
  input: "rnn/rnn/basic_lstm_cell/add_10/y"
  attr {
    key: "T"
    value {
      type: DT_DOUBLE
    }
  }
  attr {
    key: "_output_shapes"
    value {
      list {
        shape {
          dim {
            size: 128
          }
          dim {
            size: 100
          }
        }
      }
    }
  }
}
node {
  name: "rnn/rnn/basic_lstm_cell/Sigmoid_15"
  op: "Sigmoid"
  input: "rnn/rnn/basic_lstm_cell/add_10"
  attr {
    key: "T"
    value {
      type: DT_DOUBLE
    }
  }
  attr {
    key: "_output_shapes"
    value {
      list {
        shape {
          dim {
            size: 128
          }
          dim {
            size: 100
          }
        }
      }
    }
  }
}
node {
  name: "rnn/rnn/basic_lstm_cell/mul_15"
  op: "Mul"
  input: "rnn/rnn/basic_lstm_cell/add_9"
  input: "rnn/rnn/basic_lstm_cell/Sigmoid_15"
  attr {
    key: "T"
    value {
      type: DT_DOUBLE
    }
  }
  attr {
    key: "_output_shapes"
    value {
      list {
        shape {
          dim {
            size: 128
          }
          dim {
            size: 100
          }
        }
      }
    }
  }
}
node {
  name: "rnn/rnn/basic_lstm_cell/Sigmoid_16"
  op: "Sigmoid"
  input: "rnn/rnn/basic_lstm_cell/split_5"
  attr {
    key: "T"
    value {
      type: DT_DOUBLE
    }
  }
  attr {
    key: "_output_shapes"
    value {
      list {
        shape {
          dim {
            size: 128
          }
          dim {
            size: 100
          }
        }
      }
    }
  }
}
node {
  name: "rnn/rnn/basic_lstm_cell/Tanh_10"
  op: "Tanh"
  input: "rnn/rnn/basic_lstm_cell/split_5:1"
  attr {
    key: "T"
    value {
      type: DT_DOUBLE
    }
  }
  attr {
    key: "_output_shapes"
    value {
      list {
        shape {
          dim {
            size: 128
          }
          dim {
            size: 100
          }
        }
      }
    }
  }
}
node {
  name: "rnn/rnn/basic_lstm_cell/mul_16"
  op: "Mul"
  input: "rnn/rnn/basic_lstm_cell/Sigmoid_16"
  input: "rnn/rnn/basic_lstm_cell/Tanh_10"
  attr {
    key: "T"
    value {
      type: DT_DOUBLE
    }
  }
  attr {
    key: "_output_shapes"
    value {
      list {
        shape {
          dim {
            size: 128
          }
          dim {
            size: 100
          }
        }
      }
    }
  }
}
node {
  name: "rnn/rnn/basic_lstm_cell/add_11"
  op: "Add"
  input: "rnn/rnn/basic_lstm_cell/mul_15"
  input: "rnn/rnn/basic_lstm_cell/mul_16"
  attr {
    key: "T"
    value {
      type: DT_DOUBLE
    }
  }
  attr {
    key: "_output_shapes"
    value {
      list {
        shape {
          dim {
            size: 128
          }
          dim {
            size: 100
          }
        }
      }
    }
  }
}
node {
  name: "rnn/rnn/basic_lstm_cell/Tanh_11"
  op: "Tanh"
  input: "rnn/rnn/basic_lstm_cell/add_11"
  attr {
    key: "T"
    value {
      type: DT_DOUBLE
    }
  }
  attr {
    key: "_output_shapes"
    value {
      list {
        shape {
          dim {
            size: 128
          }
          dim {
            size: 100
          }
        }
      }
    }
  }
}
node {
  name: "rnn/rnn/basic_lstm_cell/Sigmoid_17"
  op: "Sigmoid"
  input: "rnn/rnn/basic_lstm_cell/split_5:3"
  attr {
    key: "T"
    value {
      type: DT_DOUBLE
    }
  }
  attr {
    key: "_output_shapes"
    value {
      list {
        shape {
          dim {
            size: 128
          }
          dim {
            size: 100
          }
        }
      }
    }
  }
}
node {
  name: "rnn/rnn/basic_lstm_cell/mul_17"
  op: "Mul"
  input: "rnn/rnn/basic_lstm_cell/Tanh_11"
  input: "rnn/rnn/basic_lstm_cell/Sigmoid_17"
  attr {
    key: "T"
    value {
      type: DT_DOUBLE
    }
  }
  attr {
    key: "_output_shapes"
    value {
      list {
        shape {
          dim {
            size: 128
          }
          dim {
            size: 100
          }
        }
      }
    }
  }
}
node {
  name: "rnn/rnn/basic_lstm_cell/concat_6/axis"
  op: "Const"
  input: "^add"
  attr {
    key: "_output_shapes"
    value {
      list {
        shape {
        }
      }
    }
  }
  attr {
    key: "dtype"
    value {
      type: DT_INT32
    }
  }
  attr {
    key: "value"
    value {
      tensor {
        dtype: DT_INT32
        tensor_shape {
        }
        int_val: 1
      }
    }
  }
}
node {
  name: "rnn/rnn/basic_lstm_cell/concat_6"
  op: "ConcatV2"
  input: "unstack:6"
  input: "rnn/rnn/basic_lstm_cell/mul_17"
  input: "rnn/rnn/basic_lstm_cell/concat_6/axis"
  attr {
    key: "N"
    value {
      i: 2
    }
  }
  attr {
    key: "T"
    value {
      type: DT_DOUBLE
    }
  }
  attr {
    key: "Tidx"
    value {
      type: DT_INT32
    }
  }
  attr {
    key: "_output_shapes"
    value {
      list {
        shape {
          dim {
            size: 128
          }
          dim {
            size: 151
          }
        }
      }
    }
  }
}
node {
  name: "rnn/rnn/basic_lstm_cell/MatMul_6"
  op: "MatMul"
  input: "rnn/rnn/basic_lstm_cell/concat_6"
  input: "rnn/basic_lstm_cell/kernel/read"
  attr {
    key: "T"
    value {
      type: DT_DOUBLE
    }
  }
  attr {
    key: "_output_shapes"
    value {
      list {
        shape {
          dim {
            size: 128
          }
          dim {
            size: 400
          }
        }
      }
    }
  }
  attr {
    key: "transpose_a"
    value {
      b: false
    }
  }
  attr {
    key: "transpose_b"
    value {
      b: false
    }
  }
}
node {
  name: "rnn/rnn/basic_lstm_cell/BiasAdd_6"
  op: "BiasAdd"
  input: "rnn/rnn/basic_lstm_cell/MatMul_6"
  input: "rnn/basic_lstm_cell/bias/read"
  attr {
    key: "T"
    value {
      type: DT_DOUBLE
    }
  }
  attr {
    key: "_output_shapes"
    value {
      list {
        shape {
          dim {
            size: 128
          }
          dim {
            size: 400
          }
        }
      }
    }
  }
  attr {
    key: "data_format"
    value {
      s: "NHWC"
    }
  }
}
node {
  name: "rnn/rnn/basic_lstm_cell/Const_6"
  op: "Const"
  input: "^add"
  attr {
    key: "_output_shapes"
    value {
      list {
        shape {
        }
      }
    }
  }
  attr {
    key: "dtype"
    value {
      type: DT_INT32
    }
  }
  attr {
    key: "value"
    value {
      tensor {
        dtype: DT_INT32
        tensor_shape {
        }
        int_val: 4
      }
    }
  }
}
node {
  name: "rnn/rnn/basic_lstm_cell/split_6/split_dim"
  op: "Const"
  input: "^add"
  attr {
    key: "_output_shapes"
    value {
      list {
        shape {
        }
      }
    }
  }
  attr {
    key: "dtype"
    value {
      type: DT_INT32
    }
  }
  attr {
    key: "value"
    value {
      tensor {
        dtype: DT_INT32
        tensor_shape {
        }
        int_val: 1
      }
    }
  }
}
node {
  name: "rnn/rnn/basic_lstm_cell/split_6"
  op: "Split"
  input: "rnn/rnn/basic_lstm_cell/split_6/split_dim"
  input: "rnn/rnn/basic_lstm_cell/BiasAdd_6"
  attr {
    key: "T"
    value {
      type: DT_DOUBLE
    }
  }
  attr {
    key: "_output_shapes"
    value {
      list {
        shape {
          dim {
            size: 128
          }
          dim {
            size: 100
          }
        }
        shape {
          dim {
            size: 128
          }
          dim {
            size: 100
          }
        }
        shape {
          dim {
            size: 128
          }
          dim {
            size: 100
          }
        }
        shape {
          dim {
            size: 128
          }
          dim {
            size: 100
          }
        }
      }
    }
  }
  attr {
    key: "num_split"
    value {
      i: 4
    }
  }
}
node {
  name: "rnn/rnn/basic_lstm_cell/add_12/y"
  op: "Const"
  input: "^add"
  attr {
    key: "_output_shapes"
    value {
      list {
        shape {
        }
      }
    }
  }
  attr {
    key: "dtype"
    value {
      type: DT_DOUBLE
    }
  }
  attr {
    key: "value"
    value {
      tensor {
        dtype: DT_DOUBLE
        tensor_shape {
        }
        double_val: 1.0
      }
    }
  }
}
node {
  name: "rnn/rnn/basic_lstm_cell/add_12"
  op: "Add"
  input: "rnn/rnn/basic_lstm_cell/split_6:2"
  input: "rnn/rnn/basic_lstm_cell/add_12/y"
  attr {
    key: "T"
    value {
      type: DT_DOUBLE
    }
  }
  attr {
    key: "_output_shapes"
    value {
      list {
        shape {
          dim {
            size: 128
          }
          dim {
            size: 100
          }
        }
      }
    }
  }
}
node {
  name: "rnn/rnn/basic_lstm_cell/Sigmoid_18"
  op: "Sigmoid"
  input: "rnn/rnn/basic_lstm_cell/add_12"
  attr {
    key: "T"
    value {
      type: DT_DOUBLE
    }
  }
  attr {
    key: "_output_shapes"
    value {
      list {
        shape {
          dim {
            size: 128
          }
          dim {
            size: 100
          }
        }
      }
    }
  }
}
node {
  name: "rnn/rnn/basic_lstm_cell/mul_18"
  op: "Mul"
  input: "rnn/rnn/basic_lstm_cell/add_11"
  input: "rnn/rnn/basic_lstm_cell/Sigmoid_18"
  attr {
    key: "T"
    value {
      type: DT_DOUBLE
    }
  }
  attr {
    key: "_output_shapes"
    value {
      list {
        shape {
          dim {
            size: 128
          }
          dim {
            size: 100
          }
        }
      }
    }
  }
}
node {
  name: "rnn/rnn/basic_lstm_cell/Sigmoid_19"
  op: "Sigmoid"
  input: "rnn/rnn/basic_lstm_cell/split_6"
  attr {
    key: "T"
    value {
      type: DT_DOUBLE
    }
  }
  attr {
    key: "_output_shapes"
    value {
      list {
        shape {
          dim {
            size: 128
          }
          dim {
            size: 100
          }
        }
      }
    }
  }
}
node {
  name: "rnn/rnn/basic_lstm_cell/Tanh_12"
  op: "Tanh"
  input: "rnn/rnn/basic_lstm_cell/split_6:1"
  attr {
    key: "T"
    value {
      type: DT_DOUBLE
    }
  }
  attr {
    key: "_output_shapes"
    value {
      list {
        shape {
          dim {
            size: 128
          }
          dim {
            size: 100
          }
        }
      }
    }
  }
}
node {
  name: "rnn/rnn/basic_lstm_cell/mul_19"
  op: "Mul"
  input: "rnn/rnn/basic_lstm_cell/Sigmoid_19"
  input: "rnn/rnn/basic_lstm_cell/Tanh_12"
  attr {
    key: "T"
    value {
      type: DT_DOUBLE
    }
  }
  attr {
    key: "_output_shapes"
    value {
      list {
        shape {
          dim {
            size: 128
          }
          dim {
            size: 100
          }
        }
      }
    }
  }
}
node {
  name: "rnn/rnn/basic_lstm_cell/add_13"
  op: "Add"
  input: "rnn/rnn/basic_lstm_cell/mul_18"
  input: "rnn/rnn/basic_lstm_cell/mul_19"
  attr {
    key: "T"
    value {
      type: DT_DOUBLE
    }
  }
  attr {
    key: "_output_shapes"
    value {
      list {
        shape {
          dim {
            size: 128
          }
          dim {
            size: 100
          }
        }
      }
    }
  }
}
node {
  name: "rnn/rnn/basic_lstm_cell/Tanh_13"
  op: "Tanh"
  input: "rnn/rnn/basic_lstm_cell/add_13"
  attr {
    key: "T"
    value {
      type: DT_DOUBLE
    }
  }
  attr {
    key: "_output_shapes"
    value {
      list {
        shape {
          dim {
            size: 128
          }
          dim {
            size: 100
          }
        }
      }
    }
  }
}
node {
  name: "rnn/rnn/basic_lstm_cell/Sigmoid_20"
  op: "Sigmoid"
  input: "rnn/rnn/basic_lstm_cell/split_6:3"
  attr {
    key: "T"
    value {
      type: DT_DOUBLE
    }
  }
  attr {
    key: "_output_shapes"
    value {
      list {
        shape {
          dim {
            size: 128
          }
          dim {
            size: 100
          }
        }
      }
    }
  }
}
node {
  name: "rnn/rnn/basic_lstm_cell/mul_20"
  op: "Mul"
  input: "rnn/rnn/basic_lstm_cell/Tanh_13"
  input: "rnn/rnn/basic_lstm_cell/Sigmoid_20"
  attr {
    key: "T"
    value {
      type: DT_DOUBLE
    }
  }
  attr {
    key: "_output_shapes"
    value {
      list {
        shape {
          dim {
            size: 128
          }
          dim {
            size: 100
          }
        }
      }
    }
  }
}
node {
  name: "rnn/rnn/basic_lstm_cell/concat_7/axis"
  op: "Const"
  input: "^add"
  attr {
    key: "_output_shapes"
    value {
      list {
        shape {
        }
      }
    }
  }
  attr {
    key: "dtype"
    value {
      type: DT_INT32
    }
  }
  attr {
    key: "value"
    value {
      tensor {
        dtype: DT_INT32
        tensor_shape {
        }
        int_val: 1
      }
    }
  }
}
node {
  name: "rnn/rnn/basic_lstm_cell/concat_7"
  op: "ConcatV2"
  input: "unstack:7"
  input: "rnn/rnn/basic_lstm_cell/mul_20"
  input: "rnn/rnn/basic_lstm_cell/concat_7/axis"
  attr {
    key: "N"
    value {
      i: 2
    }
  }
  attr {
    key: "T"
    value {
      type: DT_DOUBLE
    }
  }
  attr {
    key: "Tidx"
    value {
      type: DT_INT32
    }
  }
  attr {
    key: "_output_shapes"
    value {
      list {
        shape {
          dim {
            size: 128
          }
          dim {
            size: 151
          }
        }
      }
    }
  }
}
node {
  name: "rnn/rnn/basic_lstm_cell/MatMul_7"
  op: "MatMul"
  input: "rnn/rnn/basic_lstm_cell/concat_7"
  input: "rnn/basic_lstm_cell/kernel/read"
  attr {
    key: "T"
    value {
      type: DT_DOUBLE
    }
  }
  attr {
    key: "_output_shapes"
    value {
      list {
        shape {
          dim {
            size: 128
          }
          dim {
            size: 400
          }
        }
      }
    }
  }
  attr {
    key: "transpose_a"
    value {
      b: false
    }
  }
  attr {
    key: "transpose_b"
    value {
      b: false
    }
  }
}
node {
  name: "rnn/rnn/basic_lstm_cell/BiasAdd_7"
  op: "BiasAdd"
  input: "rnn/rnn/basic_lstm_cell/MatMul_7"
  input: "rnn/basic_lstm_cell/bias/read"
  attr {
    key: "T"
    value {
      type: DT_DOUBLE
    }
  }
  attr {
    key: "_output_shapes"
    value {
      list {
        shape {
          dim {
            size: 128
          }
          dim {
            size: 400
          }
        }
      }
    }
  }
  attr {
    key: "data_format"
    value {
      s: "NHWC"
    }
  }
}
node {
  name: "rnn/rnn/basic_lstm_cell/Const_7"
  op: "Const"
  input: "^add"
  attr {
    key: "_output_shapes"
    value {
      list {
        shape {
        }
      }
    }
  }
  attr {
    key: "dtype"
    value {
      type: DT_INT32
    }
  }
  attr {
    key: "value"
    value {
      tensor {
        dtype: DT_INT32
        tensor_shape {
        }
        int_val: 4
      }
    }
  }
}
node {
  name: "rnn/rnn/basic_lstm_cell/split_7/split_dim"
  op: "Const"
  input: "^add"
  attr {
    key: "_output_shapes"
    value {
      list {
        shape {
        }
      }
    }
  }
  attr {
    key: "dtype"
    value {
      type: DT_INT32
    }
  }
  attr {
    key: "value"
    value {
      tensor {
        dtype: DT_INT32
        tensor_shape {
        }
        int_val: 1
      }
    }
  }
}
node {
  name: "rnn/rnn/basic_lstm_cell/split_7"
  op: "Split"
  input: "rnn/rnn/basic_lstm_cell/split_7/split_dim"
  input: "rnn/rnn/basic_lstm_cell/BiasAdd_7"
  attr {
    key: "T"
    value {
      type: DT_DOUBLE
    }
  }
  attr {
    key: "_output_shapes"
    value {
      list {
        shape {
          dim {
            size: 128
          }
          dim {
            size: 100
          }
        }
        shape {
          dim {
            size: 128
          }
          dim {
            size: 100
          }
        }
        shape {
          dim {
            size: 128
          }
          dim {
            size: 100
          }
        }
        shape {
          dim {
            size: 128
          }
          dim {
            size: 100
          }
        }
      }
    }
  }
  attr {
    key: "num_split"
    value {
      i: 4
    }
  }
}
node {
  name: "rnn/rnn/basic_lstm_cell/add_14/y"
  op: "Const"
  input: "^add"
  attr {
    key: "_output_shapes"
    value {
      list {
        shape {
        }
      }
    }
  }
  attr {
    key: "dtype"
    value {
      type: DT_DOUBLE
    }
  }
  attr {
    key: "value"
    value {
      tensor {
        dtype: DT_DOUBLE
        tensor_shape {
        }
        double_val: 1.0
      }
    }
  }
}
node {
  name: "rnn/rnn/basic_lstm_cell/add_14"
  op: "Add"
  input: "rnn/rnn/basic_lstm_cell/split_7:2"
  input: "rnn/rnn/basic_lstm_cell/add_14/y"
  attr {
    key: "T"
    value {
      type: DT_DOUBLE
    }
  }
  attr {
    key: "_output_shapes"
    value {
      list {
        shape {
          dim {
            size: 128
          }
          dim {
            size: 100
          }
        }
      }
    }
  }
}
node {
  name: "rnn/rnn/basic_lstm_cell/Sigmoid_21"
  op: "Sigmoid"
  input: "rnn/rnn/basic_lstm_cell/add_14"
  attr {
    key: "T"
    value {
      type: DT_DOUBLE
    }
  }
  attr {
    key: "_output_shapes"
    value {
      list {
        shape {
          dim {
            size: 128
          }
          dim {
            size: 100
          }
        }
      }
    }
  }
}
node {
  name: "rnn/rnn/basic_lstm_cell/mul_21"
  op: "Mul"
  input: "rnn/rnn/basic_lstm_cell/add_13"
  input: "rnn/rnn/basic_lstm_cell/Sigmoid_21"
  attr {
    key: "T"
    value {
      type: DT_DOUBLE
    }
  }
  attr {
    key: "_output_shapes"
    value {
      list {
        shape {
          dim {
            size: 128
          }
          dim {
            size: 100
          }
        }
      }
    }
  }
}
node {
  name: "rnn/rnn/basic_lstm_cell/Sigmoid_22"
  op: "Sigmoid"
  input: "rnn/rnn/basic_lstm_cell/split_7"
  attr {
    key: "T"
    value {
      type: DT_DOUBLE
    }
  }
  attr {
    key: "_output_shapes"
    value {
      list {
        shape {
          dim {
            size: 128
          }
          dim {
            size: 100
          }
        }
      }
    }
  }
}
node {
  name: "rnn/rnn/basic_lstm_cell/Tanh_14"
  op: "Tanh"
  input: "rnn/rnn/basic_lstm_cell/split_7:1"
  attr {
    key: "T"
    value {
      type: DT_DOUBLE
    }
  }
  attr {
    key: "_output_shapes"
    value {
      list {
        shape {
          dim {
            size: 128
          }
          dim {
            size: 100
          }
        }
      }
    }
  }
}
node {
  name: "rnn/rnn/basic_lstm_cell/mul_22"
  op: "Mul"
  input: "rnn/rnn/basic_lstm_cell/Sigmoid_22"
  input: "rnn/rnn/basic_lstm_cell/Tanh_14"
  attr {
    key: "T"
    value {
      type: DT_DOUBLE
    }
  }
  attr {
    key: "_output_shapes"
    value {
      list {
        shape {
          dim {
            size: 128
          }
          dim {
            size: 100
          }
        }
      }
    }
  }
}
node {
  name: "rnn/rnn/basic_lstm_cell/add_15"
  op: "Add"
  input: "rnn/rnn/basic_lstm_cell/mul_21"
  input: "rnn/rnn/basic_lstm_cell/mul_22"
  attr {
    key: "T"
    value {
      type: DT_DOUBLE
    }
  }
  attr {
    key: "_output_shapes"
    value {
      list {
        shape {
          dim {
            size: 128
          }
          dim {
            size: 100
          }
        }
      }
    }
  }
}
node {
  name: "rnn/rnn/basic_lstm_cell/Tanh_15"
  op: "Tanh"
  input: "rnn/rnn/basic_lstm_cell/add_15"
  attr {
    key: "T"
    value {
      type: DT_DOUBLE
    }
  }
  attr {
    key: "_output_shapes"
    value {
      list {
        shape {
          dim {
            size: 128
          }
          dim {
            size: 100
          }
        }
      }
    }
  }
}
node {
  name: "rnn/rnn/basic_lstm_cell/Sigmoid_23"
  op: "Sigmoid"
  input: "rnn/rnn/basic_lstm_cell/split_7:3"
  attr {
    key: "T"
    value {
      type: DT_DOUBLE
    }
  }
  attr {
    key: "_output_shapes"
    value {
      list {
        shape {
          dim {
            size: 128
          }
          dim {
            size: 100
          }
        }
      }
    }
  }
}
node {
  name: "rnn/rnn/basic_lstm_cell/mul_23"
  op: "Mul"
  input: "rnn/rnn/basic_lstm_cell/Tanh_15"
  input: "rnn/rnn/basic_lstm_cell/Sigmoid_23"
  attr {
    key: "T"
    value {
      type: DT_DOUBLE
    }
  }
  attr {
    key: "_output_shapes"
    value {
      list {
        shape {
          dim {
            size: 128
          }
          dim {
            size: 100
          }
        }
      }
    }
  }
}
node {
  name: "rnn/rnn/basic_lstm_cell/concat_8/axis"
  op: "Const"
  input: "^add"
  attr {
    key: "_output_shapes"
    value {
      list {
        shape {
        }
      }
    }
  }
  attr {
    key: "dtype"
    value {
      type: DT_INT32
    }
  }
  attr {
    key: "value"
    value {
      tensor {
        dtype: DT_INT32
        tensor_shape {
        }
        int_val: 1
      }
    }
  }
}
node {
  name: "rnn/rnn/basic_lstm_cell/concat_8"
  op: "ConcatV2"
  input: "unstack:8"
  input: "rnn/rnn/basic_lstm_cell/mul_23"
  input: "rnn/rnn/basic_lstm_cell/concat_8/axis"
  attr {
    key: "N"
    value {
      i: 2
    }
  }
  attr {
    key: "T"
    value {
      type: DT_DOUBLE
    }
  }
  attr {
    key: "Tidx"
    value {
      type: DT_INT32
    }
  }
  attr {
    key: "_output_shapes"
    value {
      list {
        shape {
          dim {
            size: 128
          }
          dim {
            size: 151
          }
        }
      }
    }
  }
}
node {
  name: "rnn/rnn/basic_lstm_cell/MatMul_8"
  op: "MatMul"
  input: "rnn/rnn/basic_lstm_cell/concat_8"
  input: "rnn/basic_lstm_cell/kernel/read"
  attr {
    key: "T"
    value {
      type: DT_DOUBLE
    }
  }
  attr {
    key: "_output_shapes"
    value {
      list {
        shape {
          dim {
            size: 128
          }
          dim {
            size: 400
          }
        }
      }
    }
  }
  attr {
    key: "transpose_a"
    value {
      b: false
    }
  }
  attr {
    key: "transpose_b"
    value {
      b: false
    }
  }
}
node {
  name: "rnn/rnn/basic_lstm_cell/BiasAdd_8"
  op: "BiasAdd"
  input: "rnn/rnn/basic_lstm_cell/MatMul_8"
  input: "rnn/basic_lstm_cell/bias/read"
  attr {
    key: "T"
    value {
      type: DT_DOUBLE
    }
  }
  attr {
    key: "_output_shapes"
    value {
      list {
        shape {
          dim {
            size: 128
          }
          dim {
            size: 400
          }
        }
      }
    }
  }
  attr {
    key: "data_format"
    value {
      s: "NHWC"
    }
  }
}
node {
  name: "rnn/rnn/basic_lstm_cell/Const_8"
  op: "Const"
  input: "^add"
  attr {
    key: "_output_shapes"
    value {
      list {
        shape {
        }
      }
    }
  }
  attr {
    key: "dtype"
    value {
      type: DT_INT32
    }
  }
  attr {
    key: "value"
    value {
      tensor {
        dtype: DT_INT32
        tensor_shape {
        }
        int_val: 4
      }
    }
  }
}
node {
  name: "rnn/rnn/basic_lstm_cell/split_8/split_dim"
  op: "Const"
  input: "^add"
  attr {
    key: "_output_shapes"
    value {
      list {
        shape {
        }
      }
    }
  }
  attr {
    key: "dtype"
    value {
      type: DT_INT32
    }
  }
  attr {
    key: "value"
    value {
      tensor {
        dtype: DT_INT32
        tensor_shape {
        }
        int_val: 1
      }
    }
  }
}
node {
  name: "rnn/rnn/basic_lstm_cell/split_8"
  op: "Split"
  input: "rnn/rnn/basic_lstm_cell/split_8/split_dim"
  input: "rnn/rnn/basic_lstm_cell/BiasAdd_8"
  attr {
    key: "T"
    value {
      type: DT_DOUBLE
    }
  }
  attr {
    key: "_output_shapes"
    value {
      list {
        shape {
          dim {
            size: 128
          }
          dim {
            size: 100
          }
        }
        shape {
          dim {
            size: 128
          }
          dim {
            size: 100
          }
        }
        shape {
          dim {
            size: 128
          }
          dim {
            size: 100
          }
        }
        shape {
          dim {
            size: 128
          }
          dim {
            size: 100
          }
        }
      }
    }
  }
  attr {
    key: "num_split"
    value {
      i: 4
    }
  }
}
node {
  name: "rnn/rnn/basic_lstm_cell/add_16/y"
  op: "Const"
  input: "^add"
  attr {
    key: "_output_shapes"
    value {
      list {
        shape {
        }
      }
    }
  }
  attr {
    key: "dtype"
    value {
      type: DT_DOUBLE
    }
  }
  attr {
    key: "value"
    value {
      tensor {
        dtype: DT_DOUBLE
        tensor_shape {
        }
        double_val: 1.0
      }
    }
  }
}
node {
  name: "rnn/rnn/basic_lstm_cell/add_16"
  op: "Add"
  input: "rnn/rnn/basic_lstm_cell/split_8:2"
  input: "rnn/rnn/basic_lstm_cell/add_16/y"
  attr {
    key: "T"
    value {
      type: DT_DOUBLE
    }
  }
  attr {
    key: "_output_shapes"
    value {
      list {
        shape {
          dim {
            size: 128
          }
          dim {
            size: 100
          }
        }
      }
    }
  }
}
node {
  name: "rnn/rnn/basic_lstm_cell/Sigmoid_24"
  op: "Sigmoid"
  input: "rnn/rnn/basic_lstm_cell/add_16"
  attr {
    key: "T"
    value {
      type: DT_DOUBLE
    }
  }
  attr {
    key: "_output_shapes"
    value {
      list {
        shape {
          dim {
            size: 128
          }
          dim {
            size: 100
          }
        }
      }
    }
  }
}
node {
  name: "rnn/rnn/basic_lstm_cell/mul_24"
  op: "Mul"
  input: "rnn/rnn/basic_lstm_cell/add_15"
  input: "rnn/rnn/basic_lstm_cell/Sigmoid_24"
  attr {
    key: "T"
    value {
      type: DT_DOUBLE
    }
  }
  attr {
    key: "_output_shapes"
    value {
      list {
        shape {
          dim {
            size: 128
          }
          dim {
            size: 100
          }
        }
      }
    }
  }
}
node {
  name: "rnn/rnn/basic_lstm_cell/Sigmoid_25"
  op: "Sigmoid"
  input: "rnn/rnn/basic_lstm_cell/split_8"
  attr {
    key: "T"
    value {
      type: DT_DOUBLE
    }
  }
  attr {
    key: "_output_shapes"
    value {
      list {
        shape {
          dim {
            size: 128
          }
          dim {
            size: 100
          }
        }
      }
    }
  }
}
node {
  name: "rnn/rnn/basic_lstm_cell/Tanh_16"
  op: "Tanh"
  input: "rnn/rnn/basic_lstm_cell/split_8:1"
  attr {
    key: "T"
    value {
      type: DT_DOUBLE
    }
  }
  attr {
    key: "_output_shapes"
    value {
      list {
        shape {
          dim {
            size: 128
          }
          dim {
            size: 100
          }
        }
      }
    }
  }
}
node {
  name: "rnn/rnn/basic_lstm_cell/mul_25"
  op: "Mul"
  input: "rnn/rnn/basic_lstm_cell/Sigmoid_25"
  input: "rnn/rnn/basic_lstm_cell/Tanh_16"
  attr {
    key: "T"
    value {
      type: DT_DOUBLE
    }
  }
  attr {
    key: "_output_shapes"
    value {
      list {
        shape {
          dim {
            size: 128
          }
          dim {
            size: 100
          }
        }
      }
    }
  }
}
node {
  name: "rnn/rnn/basic_lstm_cell/add_17"
  op: "Add"
  input: "rnn/rnn/basic_lstm_cell/mul_24"
  input: "rnn/rnn/basic_lstm_cell/mul_25"
  attr {
    key: "T"
    value {
      type: DT_DOUBLE
    }
  }
  attr {
    key: "_output_shapes"
    value {
      list {
        shape {
          dim {
            size: 128
          }
          dim {
            size: 100
          }
        }
      }
    }
  }
}
node {
  name: "rnn/rnn/basic_lstm_cell/Tanh_17"
  op: "Tanh"
  input: "rnn/rnn/basic_lstm_cell/add_17"
  attr {
    key: "T"
    value {
      type: DT_DOUBLE
    }
  }
  attr {
    key: "_output_shapes"
    value {
      list {
        shape {
          dim {
            size: 128
          }
          dim {
            size: 100
          }
        }
      }
    }
  }
}
node {
  name: "rnn/rnn/basic_lstm_cell/Sigmoid_26"
  op: "Sigmoid"
  input: "rnn/rnn/basic_lstm_cell/split_8:3"
  attr {
    key: "T"
    value {
      type: DT_DOUBLE
    }
  }
  attr {
    key: "_output_shapes"
    value {
      list {
        shape {
          dim {
            size: 128
          }
          dim {
            size: 100
          }
        }
      }
    }
  }
}
node {
  name: "rnn/rnn/basic_lstm_cell/mul_26"
  op: "Mul"
  input: "rnn/rnn/basic_lstm_cell/Tanh_17"
  input: "rnn/rnn/basic_lstm_cell/Sigmoid_26"
  attr {
    key: "T"
    value {
      type: DT_DOUBLE
    }
  }
  attr {
    key: "_output_shapes"
    value {
      list {
        shape {
          dim {
            size: 128
          }
          dim {
            size: 100
          }
        }
      }
    }
  }
}
node {
  name: "rnn/rnn/basic_lstm_cell/concat_9/axis"
  op: "Const"
  input: "^add"
  attr {
    key: "_output_shapes"
    value {
      list {
        shape {
        }
      }
    }
  }
  attr {
    key: "dtype"
    value {
      type: DT_INT32
    }
  }
  attr {
    key: "value"
    value {
      tensor {
        dtype: DT_INT32
        tensor_shape {
        }
        int_val: 1
      }
    }
  }
}
node {
  name: "rnn/rnn/basic_lstm_cell/concat_9"
  op: "ConcatV2"
  input: "unstack:9"
  input: "rnn/rnn/basic_lstm_cell/mul_26"
  input: "rnn/rnn/basic_lstm_cell/concat_9/axis"
  attr {
    key: "N"
    value {
      i: 2
    }
  }
  attr {
    key: "T"
    value {
      type: DT_DOUBLE
    }
  }
  attr {
    key: "Tidx"
    value {
      type: DT_INT32
    }
  }
  attr {
    key: "_output_shapes"
    value {
      list {
        shape {
          dim {
            size: 128
          }
          dim {
            size: 151
          }
        }
      }
    }
  }
}
node {
  name: "rnn/rnn/basic_lstm_cell/MatMul_9"
  op: "MatMul"
  input: "rnn/rnn/basic_lstm_cell/concat_9"
  input: "rnn/basic_lstm_cell/kernel/read"
  attr {
    key: "T"
    value {
      type: DT_DOUBLE
    }
  }
  attr {
    key: "_output_shapes"
    value {
      list {
        shape {
          dim {
            size: 128
          }
          dim {
            size: 400
          }
        }
      }
    }
  }
  attr {
    key: "transpose_a"
    value {
      b: false
    }
  }
  attr {
    key: "transpose_b"
    value {
      b: false
    }
  }
}
node {
  name: "rnn/rnn/basic_lstm_cell/BiasAdd_9"
  op: "BiasAdd"
  input: "rnn/rnn/basic_lstm_cell/MatMul_9"
  input: "rnn/basic_lstm_cell/bias/read"
  attr {
    key: "T"
    value {
      type: DT_DOUBLE
    }
  }
  attr {
    key: "_output_shapes"
    value {
      list {
        shape {
          dim {
            size: 128
          }
          dim {
            size: 400
          }
        }
      }
    }
  }
  attr {
    key: "data_format"
    value {
      s: "NHWC"
    }
  }
}
node {
  name: "rnn/rnn/basic_lstm_cell/Const_9"
  op: "Const"
  input: "^add"
  attr {
    key: "_output_shapes"
    value {
      list {
        shape {
        }
      }
    }
  }
  attr {
    key: "dtype"
    value {
      type: DT_INT32
    }
  }
  attr {
    key: "value"
    value {
      tensor {
        dtype: DT_INT32
        tensor_shape {
        }
        int_val: 4
      }
    }
  }
}
node {
  name: "rnn/rnn/basic_lstm_cell/split_9/split_dim"
  op: "Const"
  input: "^add"
  attr {
    key: "_output_shapes"
    value {
      list {
        shape {
        }
      }
    }
  }
  attr {
    key: "dtype"
    value {
      type: DT_INT32
    }
  }
  attr {
    key: "value"
    value {
      tensor {
        dtype: DT_INT32
        tensor_shape {
        }
        int_val: 1
      }
    }
  }
}
node {
  name: "rnn/rnn/basic_lstm_cell/split_9"
  op: "Split"
  input: "rnn/rnn/basic_lstm_cell/split_9/split_dim"
  input: "rnn/rnn/basic_lstm_cell/BiasAdd_9"
  attr {
    key: "T"
    value {
      type: DT_DOUBLE
    }
  }
  attr {
    key: "_output_shapes"
    value {
      list {
        shape {
          dim {
            size: 128
          }
          dim {
            size: 100
          }
        }
        shape {
          dim {
            size: 128
          }
          dim {
            size: 100
          }
        }
        shape {
          dim {
            size: 128
          }
          dim {
            size: 100
          }
        }
        shape {
          dim {
            size: 128
          }
          dim {
            size: 100
          }
        }
      }
    }
  }
  attr {
    key: "num_split"
    value {
      i: 4
    }
  }
}
node {
  name: "rnn/rnn/basic_lstm_cell/add_18/y"
  op: "Const"
  input: "^add"
  attr {
    key: "_output_shapes"
    value {
      list {
        shape {
        }
      }
    }
  }
  attr {
    key: "dtype"
    value {
      type: DT_DOUBLE
    }
  }
  attr {
    key: "value"
    value {
      tensor {
        dtype: DT_DOUBLE
        tensor_shape {
        }
        double_val: 1.0
      }
    }
  }
}
node {
  name: "rnn/rnn/basic_lstm_cell/add_18"
  op: "Add"
  input: "rnn/rnn/basic_lstm_cell/split_9:2"
  input: "rnn/rnn/basic_lstm_cell/add_18/y"
  attr {
    key: "T"
    value {
      type: DT_DOUBLE
    }
  }
  attr {
    key: "_output_shapes"
    value {
      list {
        shape {
          dim {
            size: 128
          }
          dim {
            size: 100
          }
        }
      }
    }
  }
}
node {
  name: "rnn/rnn/basic_lstm_cell/Sigmoid_27"
  op: "Sigmoid"
  input: "rnn/rnn/basic_lstm_cell/add_18"
  attr {
    key: "T"
    value {
      type: DT_DOUBLE
    }
  }
  attr {
    key: "_output_shapes"
    value {
      list {
        shape {
          dim {
            size: 128
          }
          dim {
            size: 100
          }
        }
      }
    }
  }
}
node {
  name: "rnn/rnn/basic_lstm_cell/mul_27"
  op: "Mul"
  input: "rnn/rnn/basic_lstm_cell/add_17"
  input: "rnn/rnn/basic_lstm_cell/Sigmoid_27"
  attr {
    key: "T"
    value {
      type: DT_DOUBLE
    }
  }
  attr {
    key: "_output_shapes"
    value {
      list {
        shape {
          dim {
            size: 128
          }
          dim {
            size: 100
          }
        }
      }
    }
  }
}
node {
  name: "rnn/rnn/basic_lstm_cell/Sigmoid_28"
  op: "Sigmoid"
  input: "rnn/rnn/basic_lstm_cell/split_9"
  attr {
    key: "T"
    value {
      type: DT_DOUBLE
    }
  }
  attr {
    key: "_output_shapes"
    value {
      list {
        shape {
          dim {
            size: 128
          }
          dim {
            size: 100
          }
        }
      }
    }
  }
}
node {
  name: "rnn/rnn/basic_lstm_cell/Tanh_18"
  op: "Tanh"
  input: "rnn/rnn/basic_lstm_cell/split_9:1"
  attr {
    key: "T"
    value {
      type: DT_DOUBLE
    }
  }
  attr {
    key: "_output_shapes"
    value {
      list {
        shape {
          dim {
            size: 128
          }
          dim {
            size: 100
          }
        }
      }
    }
  }
}
node {
  name: "rnn/rnn/basic_lstm_cell/mul_28"
  op: "Mul"
  input: "rnn/rnn/basic_lstm_cell/Sigmoid_28"
  input: "rnn/rnn/basic_lstm_cell/Tanh_18"
  attr {
    key: "T"
    value {
      type: DT_DOUBLE
    }
  }
  attr {
    key: "_output_shapes"
    value {
      list {
        shape {
          dim {
            size: 128
          }
          dim {
            size: 100
          }
        }
      }
    }
  }
}
node {
  name: "rnn/rnn/basic_lstm_cell/add_19"
  op: "Add"
  input: "rnn/rnn/basic_lstm_cell/mul_27"
  input: "rnn/rnn/basic_lstm_cell/mul_28"
  attr {
    key: "T"
    value {
      type: DT_DOUBLE
    }
  }
  attr {
    key: "_output_shapes"
    value {
      list {
        shape {
          dim {
            size: 128
          }
          dim {
            size: 100
          }
        }
      }
    }
  }
}
node {
  name: "rnn/rnn/basic_lstm_cell/Tanh_19"
  op: "Tanh"
  input: "rnn/rnn/basic_lstm_cell/add_19"
  attr {
    key: "T"
    value {
      type: DT_DOUBLE
    }
  }
  attr {
    key: "_output_shapes"
    value {
      list {
        shape {
          dim {
            size: 128
          }
          dim {
            size: 100
          }
        }
      }
    }
  }
}
node {
  name: "rnn/rnn/basic_lstm_cell/Sigmoid_29"
  op: "Sigmoid"
  input: "rnn/rnn/basic_lstm_cell/split_9:3"
  attr {
    key: "T"
    value {
      type: DT_DOUBLE
    }
  }
  attr {
    key: "_output_shapes"
    value {
      list {
        shape {
          dim {
            size: 128
          }
          dim {
            size: 100
          }
        }
      }
    }
  }
}
node {
  name: "rnn/rnn/basic_lstm_cell/mul_29"
  op: "Mul"
  input: "rnn/rnn/basic_lstm_cell/Tanh_19"
  input: "rnn/rnn/basic_lstm_cell/Sigmoid_29"
  attr {
    key: "T"
    value {
      type: DT_DOUBLE
    }
  }
  attr {
    key: "_output_shapes"
    value {
      list {
        shape {
          dim {
            size: 128
          }
          dim {
            size: 100
          }
        }
      }
    }
  }
}
node {
  name: "rnn/rnn/basic_lstm_cell/concat_10/axis"
  op: "Const"
  input: "^add"
  attr {
    key: "_output_shapes"
    value {
      list {
        shape {
        }
      }
    }
  }
  attr {
    key: "dtype"
    value {
      type: DT_INT32
    }
  }
  attr {
    key: "value"
    value {
      tensor {
        dtype: DT_INT32
        tensor_shape {
        }
        int_val: 1
      }
    }
  }
}
node {
  name: "rnn/rnn/basic_lstm_cell/concat_10"
  op: "ConcatV2"
  input: "unstack:10"
  input: "rnn/rnn/basic_lstm_cell/mul_29"
  input: "rnn/rnn/basic_lstm_cell/concat_10/axis"
  attr {
    key: "N"
    value {
      i: 2
    }
  }
  attr {
    key: "T"
    value {
      type: DT_DOUBLE
    }
  }
  attr {
    key: "Tidx"
    value {
      type: DT_INT32
    }
  }
  attr {
    key: "_output_shapes"
    value {
      list {
        shape {
          dim {
            size: 128
          }
          dim {
            size: 151
          }
        }
      }
    }
  }
}
node {
  name: "rnn/rnn/basic_lstm_cell/MatMul_10"
  op: "MatMul"
  input: "rnn/rnn/basic_lstm_cell/concat_10"
  input: "rnn/basic_lstm_cell/kernel/read"
  attr {
    key: "T"
    value {
      type: DT_DOUBLE
    }
  }
  attr {
    key: "_output_shapes"
    value {
      list {
        shape {
          dim {
            size: 128
          }
          dim {
            size: 400
          }
        }
      }
    }
  }
  attr {
    key: "transpose_a"
    value {
      b: false
    }
  }
  attr {
    key: "transpose_b"
    value {
      b: false
    }
  }
}
node {
  name: "rnn/rnn/basic_lstm_cell/BiasAdd_10"
  op: "BiasAdd"
  input: "rnn/rnn/basic_lstm_cell/MatMul_10"
  input: "rnn/basic_lstm_cell/bias/read"
  attr {
    key: "T"
    value {
      type: DT_DOUBLE
    }
  }
  attr {
    key: "_output_shapes"
    value {
      list {
        shape {
          dim {
            size: 128
          }
          dim {
            size: 400
          }
        }
      }
    }
  }
  attr {
    key: "data_format"
    value {
      s: "NHWC"
    }
  }
}
node {
  name: "rnn/rnn/basic_lstm_cell/Const_10"
  op: "Const"
  input: "^add"
  attr {
    key: "_output_shapes"
    value {
      list {
        shape {
        }
      }
    }
  }
  attr {
    key: "dtype"
    value {
      type: DT_INT32
    }
  }
  attr {
    key: "value"
    value {
      tensor {
        dtype: DT_INT32
        tensor_shape {
        }
        int_val: 4
      }
    }
  }
}
node {
  name: "rnn/rnn/basic_lstm_cell/split_10/split_dim"
  op: "Const"
  input: "^add"
  attr {
    key: "_output_shapes"
    value {
      list {
        shape {
        }
      }
    }
  }
  attr {
    key: "dtype"
    value {
      type: DT_INT32
    }
  }
  attr {
    key: "value"
    value {
      tensor {
        dtype: DT_INT32
        tensor_shape {
        }
        int_val: 1
      }
    }
  }
}
node {
  name: "rnn/rnn/basic_lstm_cell/split_10"
  op: "Split"
  input: "rnn/rnn/basic_lstm_cell/split_10/split_dim"
  input: "rnn/rnn/basic_lstm_cell/BiasAdd_10"
  attr {
    key: "T"
    value {
      type: DT_DOUBLE
    }
  }
  attr {
    key: "_output_shapes"
    value {
      list {
        shape {
          dim {
            size: 128
          }
          dim {
            size: 100
          }
        }
        shape {
          dim {
            size: 128
          }
          dim {
            size: 100
          }
        }
        shape {
          dim {
            size: 128
          }
          dim {
            size: 100
          }
        }
        shape {
          dim {
            size: 128
          }
          dim {
            size: 100
          }
        }
      }
    }
  }
  attr {
    key: "num_split"
    value {
      i: 4
    }
  }
}
node {
  name: "rnn/rnn/basic_lstm_cell/add_20/y"
  op: "Const"
  input: "^add"
  attr {
    key: "_output_shapes"
    value {
      list {
        shape {
        }
      }
    }
  }
  attr {
    key: "dtype"
    value {
      type: DT_DOUBLE
    }
  }
  attr {
    key: "value"
    value {
      tensor {
        dtype: DT_DOUBLE
        tensor_shape {
        }
        double_val: 1.0
      }
    }
  }
}
node {
  name: "rnn/rnn/basic_lstm_cell/add_20"
  op: "Add"
  input: "rnn/rnn/basic_lstm_cell/split_10:2"
  input: "rnn/rnn/basic_lstm_cell/add_20/y"
  attr {
    key: "T"
    value {
      type: DT_DOUBLE
    }
  }
  attr {
    key: "_output_shapes"
    value {
      list {
        shape {
          dim {
            size: 128
          }
          dim {
            size: 100
          }
        }
      }
    }
  }
}
node {
  name: "rnn/rnn/basic_lstm_cell/Sigmoid_30"
  op: "Sigmoid"
  input: "rnn/rnn/basic_lstm_cell/add_20"
  attr {
    key: "T"
    value {
      type: DT_DOUBLE
    }
  }
  attr {
    key: "_output_shapes"
    value {
      list {
        shape {
          dim {
            size: 128
          }
          dim {
            size: 100
          }
        }
      }
    }
  }
}
node {
  name: "rnn/rnn/basic_lstm_cell/mul_30"
  op: "Mul"
  input: "rnn/rnn/basic_lstm_cell/add_19"
  input: "rnn/rnn/basic_lstm_cell/Sigmoid_30"
  attr {
    key: "T"
    value {
      type: DT_DOUBLE
    }
  }
  attr {
    key: "_output_shapes"
    value {
      list {
        shape {
          dim {
            size: 128
          }
          dim {
            size: 100
          }
        }
      }
    }
  }
}
node {
  name: "rnn/rnn/basic_lstm_cell/Sigmoid_31"
  op: "Sigmoid"
  input: "rnn/rnn/basic_lstm_cell/split_10"
  attr {
    key: "T"
    value {
      type: DT_DOUBLE
    }
  }
  attr {
    key: "_output_shapes"
    value {
      list {
        shape {
          dim {
            size: 128
          }
          dim {
            size: 100
          }
        }
      }
    }
  }
}
node {
  name: "rnn/rnn/basic_lstm_cell/Tanh_20"
  op: "Tanh"
  input: "rnn/rnn/basic_lstm_cell/split_10:1"
  attr {
    key: "T"
    value {
      type: DT_DOUBLE
    }
  }
  attr {
    key: "_output_shapes"
    value {
      list {
        shape {
          dim {
            size: 128
          }
          dim {
            size: 100
          }
        }
      }
    }
  }
}
node {
  name: "rnn/rnn/basic_lstm_cell/mul_31"
  op: "Mul"
  input: "rnn/rnn/basic_lstm_cell/Sigmoid_31"
  input: "rnn/rnn/basic_lstm_cell/Tanh_20"
  attr {
    key: "T"
    value {
      type: DT_DOUBLE
    }
  }
  attr {
    key: "_output_shapes"
    value {
      list {
        shape {
          dim {
            size: 128
          }
          dim {
            size: 100
          }
        }
      }
    }
  }
}
node {
  name: "rnn/rnn/basic_lstm_cell/add_21"
  op: "Add"
  input: "rnn/rnn/basic_lstm_cell/mul_30"
  input: "rnn/rnn/basic_lstm_cell/mul_31"
  attr {
    key: "T"
    value {
      type: DT_DOUBLE
    }
  }
  attr {
    key: "_output_shapes"
    value {
      list {
        shape {
          dim {
            size: 128
          }
          dim {
            size: 100
          }
        }
      }
    }
  }
}
node {
  name: "rnn/rnn/basic_lstm_cell/Tanh_21"
  op: "Tanh"
  input: "rnn/rnn/basic_lstm_cell/add_21"
  attr {
    key: "T"
    value {
      type: DT_DOUBLE
    }
  }
  attr {
    key: "_output_shapes"
    value {
      list {
        shape {
          dim {
            size: 128
          }
          dim {
            size: 100
          }
        }
      }
    }
  }
}
node {
  name: "rnn/rnn/basic_lstm_cell/Sigmoid_32"
  op: "Sigmoid"
  input: "rnn/rnn/basic_lstm_cell/split_10:3"
  attr {
    key: "T"
    value {
      type: DT_DOUBLE
    }
  }
  attr {
    key: "_output_shapes"
    value {
      list {
        shape {
          dim {
            size: 128
          }
          dim {
            size: 100
          }
        }
      }
    }
  }
}
node {
  name: "rnn/rnn/basic_lstm_cell/mul_32"
  op: "Mul"
  input: "rnn/rnn/basic_lstm_cell/Tanh_21"
  input: "rnn/rnn/basic_lstm_cell/Sigmoid_32"
  attr {
    key: "T"
    value {
      type: DT_DOUBLE
    }
  }
  attr {
    key: "_output_shapes"
    value {
      list {
        shape {
          dim {
            size: 128
          }
          dim {
            size: 100
          }
        }
      }
    }
  }
}
node {
  name: "rnn/rnn/basic_lstm_cell/concat_11/axis"
  op: "Const"
  input: "^add"
  attr {
    key: "_output_shapes"
    value {
      list {
        shape {
        }
      }
    }
  }
  attr {
    key: "dtype"
    value {
      type: DT_INT32
    }
  }
  attr {
    key: "value"
    value {
      tensor {
        dtype: DT_INT32
        tensor_shape {
        }
        int_val: 1
      }
    }
  }
}
node {
  name: "rnn/rnn/basic_lstm_cell/concat_11"
  op: "ConcatV2"
  input: "unstack:11"
  input: "rnn/rnn/basic_lstm_cell/mul_32"
  input: "rnn/rnn/basic_lstm_cell/concat_11/axis"
  attr {
    key: "N"
    value {
      i: 2
    }
  }
  attr {
    key: "T"
    value {
      type: DT_DOUBLE
    }
  }
  attr {
    key: "Tidx"
    value {
      type: DT_INT32
    }
  }
  attr {
    key: "_output_shapes"
    value {
      list {
        shape {
          dim {
            size: 128
          }
          dim {
            size: 151
          }
        }
      }
    }
  }
}
node {
  name: "rnn/rnn/basic_lstm_cell/MatMul_11"
  op: "MatMul"
  input: "rnn/rnn/basic_lstm_cell/concat_11"
  input: "rnn/basic_lstm_cell/kernel/read"
  attr {
    key: "T"
    value {
      type: DT_DOUBLE
    }
  }
  attr {
    key: "_output_shapes"
    value {
      list {
        shape {
          dim {
            size: 128
          }
          dim {
            size: 400
          }
        }
      }
    }
  }
  attr {
    key: "transpose_a"
    value {
      b: false
    }
  }
  attr {
    key: "transpose_b"
    value {
      b: false
    }
  }
}
node {
  name: "rnn/rnn/basic_lstm_cell/BiasAdd_11"
  op: "BiasAdd"
  input: "rnn/rnn/basic_lstm_cell/MatMul_11"
  input: "rnn/basic_lstm_cell/bias/read"
  attr {
    key: "T"
    value {
      type: DT_DOUBLE
    }
  }
  attr {
    key: "_output_shapes"
    value {
      list {
        shape {
          dim {
            size: 128
          }
          dim {
            size: 400
          }
        }
      }
    }
  }
  attr {
    key: "data_format"
    value {
      s: "NHWC"
    }
  }
}
node {
  name: "rnn/rnn/basic_lstm_cell/Const_11"
  op: "Const"
  input: "^add"
  attr {
    key: "_output_shapes"
    value {
      list {
        shape {
        }
      }
    }
  }
  attr {
    key: "dtype"
    value {
      type: DT_INT32
    }
  }
  attr {
    key: "value"
    value {
      tensor {
        dtype: DT_INT32
        tensor_shape {
        }
        int_val: 4
      }
    }
  }
}
node {
  name: "rnn/rnn/basic_lstm_cell/split_11/split_dim"
  op: "Const"
  input: "^add"
  attr {
    key: "_output_shapes"
    value {
      list {
        shape {
        }
      }
    }
  }
  attr {
    key: "dtype"
    value {
      type: DT_INT32
    }
  }
  attr {
    key: "value"
    value {
      tensor {
        dtype: DT_INT32
        tensor_shape {
        }
        int_val: 1
      }
    }
  }
}
node {
  name: "rnn/rnn/basic_lstm_cell/split_11"
  op: "Split"
  input: "rnn/rnn/basic_lstm_cell/split_11/split_dim"
  input: "rnn/rnn/basic_lstm_cell/BiasAdd_11"
  attr {
    key: "T"
    value {
      type: DT_DOUBLE
    }
  }
  attr {
    key: "_output_shapes"
    value {
      list {
        shape {
          dim {
            size: 128
          }
          dim {
            size: 100
          }
        }
        shape {
          dim {
            size: 128
          }
          dim {
            size: 100
          }
        }
        shape {
          dim {
            size: 128
          }
          dim {
            size: 100
          }
        }
        shape {
          dim {
            size: 128
          }
          dim {
            size: 100
          }
        }
      }
    }
  }
  attr {
    key: "num_split"
    value {
      i: 4
    }
  }
}
node {
  name: "rnn/rnn/basic_lstm_cell/add_22/y"
  op: "Const"
  input: "^add"
  attr {
    key: "_output_shapes"
    value {
      list {
        shape {
        }
      }
    }
  }
  attr {
    key: "dtype"
    value {
      type: DT_DOUBLE
    }
  }
  attr {
    key: "value"
    value {
      tensor {
        dtype: DT_DOUBLE
        tensor_shape {
        }
        double_val: 1.0
      }
    }
  }
}
node {
  name: "rnn/rnn/basic_lstm_cell/add_22"
  op: "Add"
  input: "rnn/rnn/basic_lstm_cell/split_11:2"
  input: "rnn/rnn/basic_lstm_cell/add_22/y"
  attr {
    key: "T"
    value {
      type: DT_DOUBLE
    }
  }
  attr {
    key: "_output_shapes"
    value {
      list {
        shape {
          dim {
            size: 128
          }
          dim {
            size: 100
          }
        }
      }
    }
  }
}
node {
  name: "rnn/rnn/basic_lstm_cell/Sigmoid_33"
  op: "Sigmoid"
  input: "rnn/rnn/basic_lstm_cell/add_22"
  attr {
    key: "T"
    value {
      type: DT_DOUBLE
    }
  }
  attr {
    key: "_output_shapes"
    value {
      list {
        shape {
          dim {
            size: 128
          }
          dim {
            size: 100
          }
        }
      }
    }
  }
}
node {
  name: "rnn/rnn/basic_lstm_cell/mul_33"
  op: "Mul"
  input: "rnn/rnn/basic_lstm_cell/add_21"
  input: "rnn/rnn/basic_lstm_cell/Sigmoid_33"
  attr {
    key: "T"
    value {
      type: DT_DOUBLE
    }
  }
  attr {
    key: "_output_shapes"
    value {
      list {
        shape {
          dim {
            size: 128
          }
          dim {
            size: 100
          }
        }
      }
    }
  }
}
node {
  name: "rnn/rnn/basic_lstm_cell/Sigmoid_34"
  op: "Sigmoid"
  input: "rnn/rnn/basic_lstm_cell/split_11"
  attr {
    key: "T"
    value {
      type: DT_DOUBLE
    }
  }
  attr {
    key: "_output_shapes"
    value {
      list {
        shape {
          dim {
            size: 128
          }
          dim {
            size: 100
          }
        }
      }
    }
  }
}
node {
  name: "rnn/rnn/basic_lstm_cell/Tanh_22"
  op: "Tanh"
  input: "rnn/rnn/basic_lstm_cell/split_11:1"
  attr {
    key: "T"
    value {
      type: DT_DOUBLE
    }
  }
  attr {
    key: "_output_shapes"
    value {
      list {
        shape {
          dim {
            size: 128
          }
          dim {
            size: 100
          }
        }
      }
    }
  }
}
node {
  name: "rnn/rnn/basic_lstm_cell/mul_34"
  op: "Mul"
  input: "rnn/rnn/basic_lstm_cell/Sigmoid_34"
  input: "rnn/rnn/basic_lstm_cell/Tanh_22"
  attr {
    key: "T"
    value {
      type: DT_DOUBLE
    }
  }
  attr {
    key: "_output_shapes"
    value {
      list {
        shape {
          dim {
            size: 128
          }
          dim {
            size: 100
          }
        }
      }
    }
  }
}
node {
  name: "rnn/rnn/basic_lstm_cell/add_23"
  op: "Add"
  input: "rnn/rnn/basic_lstm_cell/mul_33"
  input: "rnn/rnn/basic_lstm_cell/mul_34"
  attr {
    key: "T"
    value {
      type: DT_DOUBLE
    }
  }
  attr {
    key: "_output_shapes"
    value {
      list {
        shape {
          dim {
            size: 128
          }
          dim {
            size: 100
          }
        }
      }
    }
  }
}
node {
  name: "rnn/rnn/basic_lstm_cell/Tanh_23"
  op: "Tanh"
  input: "rnn/rnn/basic_lstm_cell/add_23"
  attr {
    key: "T"
    value {
      type: DT_DOUBLE
    }
  }
  attr {
    key: "_output_shapes"
    value {
      list {
        shape {
          dim {
            size: 128
          }
          dim {
            size: 100
          }
        }
      }
    }
  }
}
node {
  name: "rnn/rnn/basic_lstm_cell/Sigmoid_35"
  op: "Sigmoid"
  input: "rnn/rnn/basic_lstm_cell/split_11:3"
  attr {
    key: "T"
    value {
      type: DT_DOUBLE
    }
  }
  attr {
    key: "_output_shapes"
    value {
      list {
        shape {
          dim {
            size: 128
          }
          dim {
            size: 100
          }
        }
      }
    }
  }
}
node {
  name: "rnn/rnn/basic_lstm_cell/mul_35"
  op: "Mul"
  input: "rnn/rnn/basic_lstm_cell/Tanh_23"
  input: "rnn/rnn/basic_lstm_cell/Sigmoid_35"
  attr {
    key: "T"
    value {
      type: DT_DOUBLE
    }
  }
  attr {
    key: "_output_shapes"
    value {
      list {
        shape {
          dim {
            size: 128
          }
          dim {
            size: 100
          }
        }
      }
    }
  }
}
node {
  name: "rnn/rnn/basic_lstm_cell/concat_12/axis"
  op: "Const"
  input: "^add"
  attr {
    key: "_output_shapes"
    value {
      list {
        shape {
        }
      }
    }
  }
  attr {
    key: "dtype"
    value {
      type: DT_INT32
    }
  }
  attr {
    key: "value"
    value {
      tensor {
        dtype: DT_INT32
        tensor_shape {
        }
        int_val: 1
      }
    }
  }
}
node {
  name: "rnn/rnn/basic_lstm_cell/concat_12"
  op: "ConcatV2"
  input: "unstack:12"
  input: "rnn/rnn/basic_lstm_cell/mul_35"
  input: "rnn/rnn/basic_lstm_cell/concat_12/axis"
  attr {
    key: "N"
    value {
      i: 2
    }
  }
  attr {
    key: "T"
    value {
      type: DT_DOUBLE
    }
  }
  attr {
    key: "Tidx"
    value {
      type: DT_INT32
    }
  }
  attr {
    key: "_output_shapes"
    value {
      list {
        shape {
          dim {
            size: 128
          }
          dim {
            size: 151
          }
        }
      }
    }
  }
}
node {
  name: "rnn/rnn/basic_lstm_cell/MatMul_12"
  op: "MatMul"
  input: "rnn/rnn/basic_lstm_cell/concat_12"
  input: "rnn/basic_lstm_cell/kernel/read"
  attr {
    key: "T"
    value {
      type: DT_DOUBLE
    }
  }
  attr {
    key: "_output_shapes"
    value {
      list {
        shape {
          dim {
            size: 128
          }
          dim {
            size: 400
          }
        }
      }
    }
  }
  attr {
    key: "transpose_a"
    value {
      b: false
    }
  }
  attr {
    key: "transpose_b"
    value {
      b: false
    }
  }
}
node {
  name: "rnn/rnn/basic_lstm_cell/BiasAdd_12"
  op: "BiasAdd"
  input: "rnn/rnn/basic_lstm_cell/MatMul_12"
  input: "rnn/basic_lstm_cell/bias/read"
  attr {
    key: "T"
    value {
      type: DT_DOUBLE
    }
  }
  attr {
    key: "_output_shapes"
    value {
      list {
        shape {
          dim {
            size: 128
          }
          dim {
            size: 400
          }
        }
      }
    }
  }
  attr {
    key: "data_format"
    value {
      s: "NHWC"
    }
  }
}
node {
  name: "rnn/rnn/basic_lstm_cell/Const_12"
  op: "Const"
  input: "^add"
  attr {
    key: "_output_shapes"
    value {
      list {
        shape {
        }
      }
    }
  }
  attr {
    key: "dtype"
    value {
      type: DT_INT32
    }
  }
  attr {
    key: "value"
    value {
      tensor {
        dtype: DT_INT32
        tensor_shape {
        }
        int_val: 4
      }
    }
  }
}
node {
  name: "rnn/rnn/basic_lstm_cell/split_12/split_dim"
  op: "Const"
  input: "^add"
  attr {
    key: "_output_shapes"
    value {
      list {
        shape {
        }
      }
    }
  }
  attr {
    key: "dtype"
    value {
      type: DT_INT32
    }
  }
  attr {
    key: "value"
    value {
      tensor {
        dtype: DT_INT32
        tensor_shape {
        }
        int_val: 1
      }
    }
  }
}
node {
  name: "rnn/rnn/basic_lstm_cell/split_12"
  op: "Split"
  input: "rnn/rnn/basic_lstm_cell/split_12/split_dim"
  input: "rnn/rnn/basic_lstm_cell/BiasAdd_12"
  attr {
    key: "T"
    value {
      type: DT_DOUBLE
    }
  }
  attr {
    key: "_output_shapes"
    value {
      list {
        shape {
          dim {
            size: 128
          }
          dim {
            size: 100
          }
        }
        shape {
          dim {
            size: 128
          }
          dim {
            size: 100
          }
        }
        shape {
          dim {
            size: 128
          }
          dim {
            size: 100
          }
        }
        shape {
          dim {
            size: 128
          }
          dim {
            size: 100
          }
        }
      }
    }
  }
  attr {
    key: "num_split"
    value {
      i: 4
    }
  }
}
node {
  name: "rnn/rnn/basic_lstm_cell/add_24/y"
  op: "Const"
  input: "^add"
  attr {
    key: "_output_shapes"
    value {
      list {
        shape {
        }
      }
    }
  }
  attr {
    key: "dtype"
    value {
      type: DT_DOUBLE
    }
  }
  attr {
    key: "value"
    value {
      tensor {
        dtype: DT_DOUBLE
        tensor_shape {
        }
        double_val: 1.0
      }
    }
  }
}
node {
  name: "rnn/rnn/basic_lstm_cell/add_24"
  op: "Add"
  input: "rnn/rnn/basic_lstm_cell/split_12:2"
  input: "rnn/rnn/basic_lstm_cell/add_24/y"
  attr {
    key: "T"
    value {
      type: DT_DOUBLE
    }
  }
  attr {
    key: "_output_shapes"
    value {
      list {
        shape {
          dim {
            size: 128
          }
          dim {
            size: 100
          }
        }
      }
    }
  }
}
node {
  name: "rnn/rnn/basic_lstm_cell/Sigmoid_36"
  op: "Sigmoid"
  input: "rnn/rnn/basic_lstm_cell/add_24"
  attr {
    key: "T"
    value {
      type: DT_DOUBLE
    }
  }
  attr {
    key: "_output_shapes"
    value {
      list {
        shape {
          dim {
            size: 128
          }
          dim {
            size: 100
          }
        }
      }
    }
  }
}
node {
  name: "rnn/rnn/basic_lstm_cell/mul_36"
  op: "Mul"
  input: "rnn/rnn/basic_lstm_cell/add_23"
  input: "rnn/rnn/basic_lstm_cell/Sigmoid_36"
  attr {
    key: "T"
    value {
      type: DT_DOUBLE
    }
  }
  attr {
    key: "_output_shapes"
    value {
      list {
        shape {
          dim {
            size: 128
          }
          dim {
            size: 100
          }
        }
      }
    }
  }
}
node {
  name: "rnn/rnn/basic_lstm_cell/Sigmoid_37"
  op: "Sigmoid"
  input: "rnn/rnn/basic_lstm_cell/split_12"
  attr {
    key: "T"
    value {
      type: DT_DOUBLE
    }
  }
  attr {
    key: "_output_shapes"
    value {
      list {
        shape {
          dim {
            size: 128
          }
          dim {
            size: 100
          }
        }
      }
    }
  }
}
node {
  name: "rnn/rnn/basic_lstm_cell/Tanh_24"
  op: "Tanh"
  input: "rnn/rnn/basic_lstm_cell/split_12:1"
  attr {
    key: "T"
    value {
      type: DT_DOUBLE
    }
  }
  attr {
    key: "_output_shapes"
    value {
      list {
        shape {
          dim {
            size: 128
          }
          dim {
            size: 100
          }
        }
      }
    }
  }
}
node {
  name: "rnn/rnn/basic_lstm_cell/mul_37"
  op: "Mul"
  input: "rnn/rnn/basic_lstm_cell/Sigmoid_37"
  input: "rnn/rnn/basic_lstm_cell/Tanh_24"
  attr {
    key: "T"
    value {
      type: DT_DOUBLE
    }
  }
  attr {
    key: "_output_shapes"
    value {
      list {
        shape {
          dim {
            size: 128
          }
          dim {
            size: 100
          }
        }
      }
    }
  }
}
node {
  name: "rnn/rnn/basic_lstm_cell/add_25"
  op: "Add"
  input: "rnn/rnn/basic_lstm_cell/mul_36"
  input: "rnn/rnn/basic_lstm_cell/mul_37"
  attr {
    key: "T"
    value {
      type: DT_DOUBLE
    }
  }
  attr {
    key: "_output_shapes"
    value {
      list {
        shape {
          dim {
            size: 128
          }
          dim {
            size: 100
          }
        }
      }
    }
  }
}
node {
  name: "rnn/rnn/basic_lstm_cell/Tanh_25"
  op: "Tanh"
  input: "rnn/rnn/basic_lstm_cell/add_25"
  attr {
    key: "T"
    value {
      type: DT_DOUBLE
    }
  }
  attr {
    key: "_output_shapes"
    value {
      list {
        shape {
          dim {
            size: 128
          }
          dim {
            size: 100
          }
        }
      }
    }
  }
}
node {
  name: "rnn/rnn/basic_lstm_cell/Sigmoid_38"
  op: "Sigmoid"
  input: "rnn/rnn/basic_lstm_cell/split_12:3"
  attr {
    key: "T"
    value {
      type: DT_DOUBLE
    }
  }
  attr {
    key: "_output_shapes"
    value {
      list {
        shape {
          dim {
            size: 128
          }
          dim {
            size: 100
          }
        }
      }
    }
  }
}
node {
  name: "rnn/rnn/basic_lstm_cell/mul_38"
  op: "Mul"
  input: "rnn/rnn/basic_lstm_cell/Tanh_25"
  input: "rnn/rnn/basic_lstm_cell/Sigmoid_38"
  attr {
    key: "T"
    value {
      type: DT_DOUBLE
    }
  }
  attr {
    key: "_output_shapes"
    value {
      list {
        shape {
          dim {
            size: 128
          }
          dim {
            size: 100
          }
        }
      }
    }
  }
}
node {
  name: "rnn/rnn/basic_lstm_cell/concat_13/axis"
  op: "Const"
  input: "^add"
  attr {
    key: "_output_shapes"
    value {
      list {
        shape {
        }
      }
    }
  }
  attr {
    key: "dtype"
    value {
      type: DT_INT32
    }
  }
  attr {
    key: "value"
    value {
      tensor {
        dtype: DT_INT32
        tensor_shape {
        }
        int_val: 1
      }
    }
  }
}
node {
  name: "rnn/rnn/basic_lstm_cell/concat_13"
  op: "ConcatV2"
  input: "unstack:13"
  input: "rnn/rnn/basic_lstm_cell/mul_38"
  input: "rnn/rnn/basic_lstm_cell/concat_13/axis"
  attr {
    key: "N"
    value {
      i: 2
    }
  }
  attr {
    key: "T"
    value {
      type: DT_DOUBLE
    }
  }
  attr {
    key: "Tidx"
    value {
      type: DT_INT32
    }
  }
  attr {
    key: "_output_shapes"
    value {
      list {
        shape {
          dim {
            size: 128
          }
          dim {
            size: 151
          }
        }
      }
    }
  }
}
node {
  name: "rnn/rnn/basic_lstm_cell/MatMul_13"
  op: "MatMul"
  input: "rnn/rnn/basic_lstm_cell/concat_13"
  input: "rnn/basic_lstm_cell/kernel/read"
  attr {
    key: "T"
    value {
      type: DT_DOUBLE
    }
  }
  attr {
    key: "_output_shapes"
    value {
      list {
        shape {
          dim {
            size: 128
          }
          dim {
            size: 400
          }
        }
      }
    }
  }
  attr {
    key: "transpose_a"
    value {
      b: false
    }
  }
  attr {
    key: "transpose_b"
    value {
      b: false
    }
  }
}
node {
  name: "rnn/rnn/basic_lstm_cell/BiasAdd_13"
  op: "BiasAdd"
  input: "rnn/rnn/basic_lstm_cell/MatMul_13"
  input: "rnn/basic_lstm_cell/bias/read"
  attr {
    key: "T"
    value {
      type: DT_DOUBLE
    }
  }
  attr {
    key: "_output_shapes"
    value {
      list {
        shape {
          dim {
            size: 128
          }
          dim {
            size: 400
          }
        }
      }
    }
  }
  attr {
    key: "data_format"
    value {
      s: "NHWC"
    }
  }
}
node {
  name: "rnn/rnn/basic_lstm_cell/Const_13"
  op: "Const"
  input: "^add"
  attr {
    key: "_output_shapes"
    value {
      list {
        shape {
        }
      }
    }
  }
  attr {
    key: "dtype"
    value {
      type: DT_INT32
    }
  }
  attr {
    key: "value"
    value {
      tensor {
        dtype: DT_INT32
        tensor_shape {
        }
        int_val: 4
      }
    }
  }
}
node {
  name: "rnn/rnn/basic_lstm_cell/split_13/split_dim"
  op: "Const"
  input: "^add"
  attr {
    key: "_output_shapes"
    value {
      list {
        shape {
        }
      }
    }
  }
  attr {
    key: "dtype"
    value {
      type: DT_INT32
    }
  }
  attr {
    key: "value"
    value {
      tensor {
        dtype: DT_INT32
        tensor_shape {
        }
        int_val: 1
      }
    }
  }
}
node {
  name: "rnn/rnn/basic_lstm_cell/split_13"
  op: "Split"
  input: "rnn/rnn/basic_lstm_cell/split_13/split_dim"
  input: "rnn/rnn/basic_lstm_cell/BiasAdd_13"
  attr {
    key: "T"
    value {
      type: DT_DOUBLE
    }
  }
  attr {
    key: "_output_shapes"
    value {
      list {
        shape {
          dim {
            size: 128
          }
          dim {
            size: 100
          }
        }
        shape {
          dim {
            size: 128
          }
          dim {
            size: 100
          }
        }
        shape {
          dim {
            size: 128
          }
          dim {
            size: 100
          }
        }
        shape {
          dim {
            size: 128
          }
          dim {
            size: 100
          }
        }
      }
    }
  }
  attr {
    key: "num_split"
    value {
      i: 4
    }
  }
}
node {
  name: "rnn/rnn/basic_lstm_cell/add_26/y"
  op: "Const"
  input: "^add"
  attr {
    key: "_output_shapes"
    value {
      list {
        shape {
        }
      }
    }
  }
  attr {
    key: "dtype"
    value {
      type: DT_DOUBLE
    }
  }
  attr {
    key: "value"
    value {
      tensor {
        dtype: DT_DOUBLE
        tensor_shape {
        }
        double_val: 1.0
      }
    }
  }
}
node {
  name: "rnn/rnn/basic_lstm_cell/add_26"
  op: "Add"
  input: "rnn/rnn/basic_lstm_cell/split_13:2"
  input: "rnn/rnn/basic_lstm_cell/add_26/y"
  attr {
    key: "T"
    value {
      type: DT_DOUBLE
    }
  }
  attr {
    key: "_output_shapes"
    value {
      list {
        shape {
          dim {
            size: 128
          }
          dim {
            size: 100
          }
        }
      }
    }
  }
}
node {
  name: "rnn/rnn/basic_lstm_cell/Sigmoid_39"
  op: "Sigmoid"
  input: "rnn/rnn/basic_lstm_cell/add_26"
  attr {
    key: "T"
    value {
      type: DT_DOUBLE
    }
  }
  attr {
    key: "_output_shapes"
    value {
      list {
        shape {
          dim {
            size: 128
          }
          dim {
            size: 100
          }
        }
      }
    }
  }
}
node {
  name: "rnn/rnn/basic_lstm_cell/mul_39"
  op: "Mul"
  input: "rnn/rnn/basic_lstm_cell/add_25"
  input: "rnn/rnn/basic_lstm_cell/Sigmoid_39"
  attr {
    key: "T"
    value {
      type: DT_DOUBLE
    }
  }
  attr {
    key: "_output_shapes"
    value {
      list {
        shape {
          dim {
            size: 128
          }
          dim {
            size: 100
          }
        }
      }
    }
  }
}
node {
  name: "rnn/rnn/basic_lstm_cell/Sigmoid_40"
  op: "Sigmoid"
  input: "rnn/rnn/basic_lstm_cell/split_13"
  attr {
    key: "T"
    value {
      type: DT_DOUBLE
    }
  }
  attr {
    key: "_output_shapes"
    value {
      list {
        shape {
          dim {
            size: 128
          }
          dim {
            size: 100
          }
        }
      }
    }
  }
}
node {
  name: "rnn/rnn/basic_lstm_cell/Tanh_26"
  op: "Tanh"
  input: "rnn/rnn/basic_lstm_cell/split_13:1"
  attr {
    key: "T"
    value {
      type: DT_DOUBLE
    }
  }
  attr {
    key: "_output_shapes"
    value {
      list {
        shape {
          dim {
            size: 128
          }
          dim {
            size: 100
          }
        }
      }
    }
  }
}
node {
  name: "rnn/rnn/basic_lstm_cell/mul_40"
  op: "Mul"
  input: "rnn/rnn/basic_lstm_cell/Sigmoid_40"
  input: "rnn/rnn/basic_lstm_cell/Tanh_26"
  attr {
    key: "T"
    value {
      type: DT_DOUBLE
    }
  }
  attr {
    key: "_output_shapes"
    value {
      list {
        shape {
          dim {
            size: 128
          }
          dim {
            size: 100
          }
        }
      }
    }
  }
}
node {
  name: "rnn/rnn/basic_lstm_cell/add_27"
  op: "Add"
  input: "rnn/rnn/basic_lstm_cell/mul_39"
  input: "rnn/rnn/basic_lstm_cell/mul_40"
  attr {
    key: "T"
    value {
      type: DT_DOUBLE
    }
  }
  attr {
    key: "_output_shapes"
    value {
      list {
        shape {
          dim {
            size: 128
          }
          dim {
            size: 100
          }
        }
      }
    }
  }
}
node {
  name: "rnn/rnn/basic_lstm_cell/Tanh_27"
  op: "Tanh"
  input: "rnn/rnn/basic_lstm_cell/add_27"
  attr {
    key: "T"
    value {
      type: DT_DOUBLE
    }
  }
  attr {
    key: "_output_shapes"
    value {
      list {
        shape {
          dim {
            size: 128
          }
          dim {
            size: 100
          }
        }
      }
    }
  }
}
node {
  name: "rnn/rnn/basic_lstm_cell/Sigmoid_41"
  op: "Sigmoid"
  input: "rnn/rnn/basic_lstm_cell/split_13:3"
  attr {
    key: "T"
    value {
      type: DT_DOUBLE
    }
  }
  attr {
    key: "_output_shapes"
    value {
      list {
        shape {
          dim {
            size: 128
          }
          dim {
            size: 100
          }
        }
      }
    }
  }
}
node {
  name: "rnn/rnn/basic_lstm_cell/mul_41"
  op: "Mul"
  input: "rnn/rnn/basic_lstm_cell/Tanh_27"
  input: "rnn/rnn/basic_lstm_cell/Sigmoid_41"
  attr {
    key: "T"
    value {
      type: DT_DOUBLE
    }
  }
  attr {
    key: "_output_shapes"
    value {
      list {
        shape {
          dim {
            size: 128
          }
          dim {
            size: 100
          }
        }
      }
    }
  }
}
node {
  name: "rnn/rnn/basic_lstm_cell/concat_14/axis"
  op: "Const"
  input: "^add"
  attr {
    key: "_output_shapes"
    value {
      list {
        shape {
        }
      }
    }
  }
  attr {
    key: "dtype"
    value {
      type: DT_INT32
    }
  }
  attr {
    key: "value"
    value {
      tensor {
        dtype: DT_INT32
        tensor_shape {
        }
        int_val: 1
      }
    }
  }
}
node {
  name: "rnn/rnn/basic_lstm_cell/concat_14"
  op: "ConcatV2"
  input: "unstack:14"
  input: "rnn/rnn/basic_lstm_cell/mul_41"
  input: "rnn/rnn/basic_lstm_cell/concat_14/axis"
  attr {
    key: "N"
    value {
      i: 2
    }
  }
  attr {
    key: "T"
    value {
      type: DT_DOUBLE
    }
  }
  attr {
    key: "Tidx"
    value {
      type: DT_INT32
    }
  }
  attr {
    key: "_output_shapes"
    value {
      list {
        shape {
          dim {
            size: 128
          }
          dim {
            size: 151
          }
        }
      }
    }
  }
}
node {
  name: "rnn/rnn/basic_lstm_cell/MatMul_14"
  op: "MatMul"
  input: "rnn/rnn/basic_lstm_cell/concat_14"
  input: "rnn/basic_lstm_cell/kernel/read"
  attr {
    key: "T"
    value {
      type: DT_DOUBLE
    }
  }
  attr {
    key: "_output_shapes"
    value {
      list {
        shape {
          dim {
            size: 128
          }
          dim {
            size: 400
          }
        }
      }
    }
  }
  attr {
    key: "transpose_a"
    value {
      b: false
    }
  }
  attr {
    key: "transpose_b"
    value {
      b: false
    }
  }
}
node {
  name: "rnn/rnn/basic_lstm_cell/BiasAdd_14"
  op: "BiasAdd"
  input: "rnn/rnn/basic_lstm_cell/MatMul_14"
  input: "rnn/basic_lstm_cell/bias/read"
  attr {
    key: "T"
    value {
      type: DT_DOUBLE
    }
  }
  attr {
    key: "_output_shapes"
    value {
      list {
        shape {
          dim {
            size: 128
          }
          dim {
            size: 400
          }
        }
      }
    }
  }
  attr {
    key: "data_format"
    value {
      s: "NHWC"
    }
  }
}
node {
  name: "rnn/rnn/basic_lstm_cell/Const_14"
  op: "Const"
  input: "^add"
  attr {
    key: "_output_shapes"
    value {
      list {
        shape {
        }
      }
    }
  }
  attr {
    key: "dtype"
    value {
      type: DT_INT32
    }
  }
  attr {
    key: "value"
    value {
      tensor {
        dtype: DT_INT32
        tensor_shape {
        }
        int_val: 4
      }
    }
  }
}
node {
  name: "rnn/rnn/basic_lstm_cell/split_14/split_dim"
  op: "Const"
  input: "^add"
  attr {
    key: "_output_shapes"
    value {
      list {
        shape {
        }
      }
    }
  }
  attr {
    key: "dtype"
    value {
      type: DT_INT32
    }
  }
  attr {
    key: "value"
    value {
      tensor {
        dtype: DT_INT32
        tensor_shape {
        }
        int_val: 1
      }
    }
  }
}
node {
  name: "rnn/rnn/basic_lstm_cell/split_14"
  op: "Split"
  input: "rnn/rnn/basic_lstm_cell/split_14/split_dim"
  input: "rnn/rnn/basic_lstm_cell/BiasAdd_14"
  attr {
    key: "T"
    value {
      type: DT_DOUBLE
    }
  }
  attr {
    key: "_output_shapes"
    value {
      list {
        shape {
          dim {
            size: 128
          }
          dim {
            size: 100
          }
        }
        shape {
          dim {
            size: 128
          }
          dim {
            size: 100
          }
        }
        shape {
          dim {
            size: 128
          }
          dim {
            size: 100
          }
        }
        shape {
          dim {
            size: 128
          }
          dim {
            size: 100
          }
        }
      }
    }
  }
  attr {
    key: "num_split"
    value {
      i: 4
    }
  }
}
node {
  name: "rnn/rnn/basic_lstm_cell/add_28/y"
  op: "Const"
  input: "^add"
  attr {
    key: "_output_shapes"
    value {
      list {
        shape {
        }
      }
    }
  }
  attr {
    key: "dtype"
    value {
      type: DT_DOUBLE
    }
  }
  attr {
    key: "value"
    value {
      tensor {
        dtype: DT_DOUBLE
        tensor_shape {
        }
        double_val: 1.0
      }
    }
  }
}
…
        }
        string_val: "global_step"
        string_val: "rnn/basic_lstm_cell/kernel"
        string_val: "rnn/basic_lstm_cell/bias"
        string_val: "softmax_w"
        string_val: "softmax_b"
        string_val: "beta1_power"
        string_val: "beta2_power"
        string_val: "rnn/basic_lstm_cell/kernel/Adam"
        string_val: "rnn/basic_lstm_cell/kernel/Adam_1"
        string_val: "rnn/basic_lstm_cell/bias/Adam"
        string_val: "rnn/basic_lstm_cell/bias/Adam_1"
        string_val: "softmax_w/Adam"
        string_val: "softmax_w/Adam_1"
        string_val: "softmax_b/Adam"
        string_val: "softmax_b/Adam_1"
      }
    }
  }
}
node {
  name: "report_uninitialized_variables_1/boolean_mask/Shape"
  op: "Const"
  device: "/device:CPU:0"
  attr {
    key: "_output_shapes"
    value {
      list {
        shape {
          dim {
            size: 1
          }
        }
      }
    }
  }
  attr {
    key: "dtype"
    value {
      type: DT_INT32
    }
  }
  attr {
    key: "value"
    value {
      tensor {
        dtype: DT_INT32
        tensor_shape {
          dim {
            size: 1
          }
        }
        int_val: 15
      }
    }
  }
}
node {
  name: "report_uninitialized_variables_1/boolean_mask/strided_slice/stack"
  op: "Const"
  device: "/device:CPU:0"
  attr {
    key: "_output_shapes"
    value {
      list {
        shape {
          dim {
            size: 1
          }
        }
      }
    }
  }
  attr {
    key: "dtype"
    value {
      type: DT_INT32
    }
  }
  attr {
    key: "value"
    value {
      tensor {
        dtype: DT_INT32
        tensor_shape {
          dim {
            size: 1
          }
        }
        int_val: 0
      }
    }
  }
}
node {
  name: "report_uninitialized_variables_1/boolean_mask/strided_slice/stack_1"
  op: "Const"
  device: "/device:CPU:0"
  attr {
    key: "_output_shapes"
    value {
      list {
        shape {
          dim {
            size: 1
          }
        }
      }
    }
  }
  attr {
    key: "dtype"
    value {
      type: DT_INT32
    }
  }
  attr {
    key: "value"
    value {
      tensor {
        dtype: DT_INT32
        tensor_shape {
          dim {
            size: 1
          }
        }
        int_val: 1
      }
    }
  }
}
node {
  name: "report_uninitialized_variables_1/boolean_mask/strided_slice/stack_2"
  op: "Const"
  device: "/device:CPU:0"
  attr {
    key: "_output_shapes"
    value {
      list {
        shape {
          dim {
            size: 1
          }
        }
      }
    }
  }
  attr {
    key: "dtype"
    value {
      type: DT_INT32
    }
  }
  attr {
    key: "value"
    value {
      tensor {
        dtype: DT_INT32
        tensor_shape {
          dim {
            size: 1
          }
        }
        int_val: 1
      }
    }
  }
}
node {
  name: "report_uninitialized_variables_1/boolean_mask/strided_slice"
  op: "StridedSlice"
  input: "report_uninitialized_variables_1/boolean_mask/Shape"
  input: "report_uninitialized_variables_1/boolean_mask/strided_slice/stack"
  input: "report_uninitialized_variables_1/boolean_mask/strided_slice/stack_1"
  input: "report_uninitialized_variables_1/boolean_mask/strided_slice/stack_2"
  device: "/device:CPU:0"
  attr {
    key: "Index"
    value {
      type: DT_INT32
    }
  }
  attr {
    key: "T"
    value {
      type: DT_INT32
    }
  }
  attr {
    key: "_output_shapes"
    value {
      list {
        shape {
          dim {
            size: 1
          }
        }
      }
    }
  }
  attr {
    key: "begin_mask"
    value {
      i: 1
    }
  }
  attr {
    key: "ellipsis_mask"
    value {
      i: 0
    }
  }
  attr {
    key: "end_mask"
    value {
      i: 0
    }
  }
  attr {
    key: "new_axis_mask"
    value {
      i: 0
    }
  }
  attr {
    key: "shrink_axis_mask"
    value {
      i: 0
    }
  }
}
node {
  name: "report_uninitialized_variables_1/boolean_mask/Prod/reduction_indices"
  op: "Const"
  device: "/device:CPU:0"
  attr {
    key: "_output_shapes"
    value {
      list {
        shape {
          dim {
            size: 1
          }
        }
      }
    }
  }
  attr {
    key: "dtype"
    value {
      type: DT_INT32
    }
  }
  attr {
    key: "value"
    value {
      tensor {
        dtype: DT_INT32
        tensor_shape {
          dim {
            size: 1
          }
        }
        int_val: 0
      }
    }
  }
}
node {
  name: "report_uninitialized_variables_1/boolean_mask/Prod"
  op: "Prod"
  input: "report_uninitialized_variables_1/boolean_mask/strided_slice"
  input: "report_uninitialized_variables_1/boolean_mask/Prod/reduction_indices"
  device: "/device:CPU:0"
  attr {
    key: "T"
    value {
      type: DT_INT32
    }
  }
  attr {
    key: "Tidx"
    value {
      type: DT_INT32
    }
  }
  attr {
    key: "_output_shapes"
    value {
      list {
        shape {
        }
      }
    }
  }
  attr {
    key: "keep_dims"
    value {
      b: false
    }
  }
}
node {
  name: "report_uninitialized_variables_1/boolean_mask/Shape_1"
  op: "Const"
  device: "/device:CPU:0"
  attr {
    key: "_output_shapes"
    value {
      list {
        shape {
          dim {
            size: 1
          }
        }
      }
    }
  }
  attr {
    key: "dtype"
    value {
      type: DT_INT32
    }
  }
  attr {
    key: "value"
    value {
      tensor {
        dtype: DT_INT32
        tensor_shape {
          dim {
            size: 1
          }
        }
        int_val: 15
      }
    }
  }
}
node {
  name: "report_uninitialized_variables_1/boolean_mask/strided_slice_1/stack"
  op: "Const"
  device: "/device:CPU:0"
  attr {
    key: "_output_shapes"
    value {
      list {
        shape {
          dim {
            size: 1
          }
        }
      }
    }
  }
  attr {
    key: "dtype"
    value {
      type: DT_INT32
    }
  }
  attr {
    key: "value"
    value {
      tensor {
        dtype: DT_INT32
        tensor_shape {
          dim {
            size: 1
          }
        }
        int_val: 1
      }
    }
  }
}
node {
  name: "report_uninitialized_variables_1/boolean_mask/strided_slice_1/stack_1"
  op: "Const"
  device: "/device:CPU:0"
  attr {
    key: "_output_shapes"
    value {
      list {
        shape {
          dim {
            size: 1
          }
        }
      }
    }
  }
  attr {
    key: "dtype"
    value {
      type: DT_INT32
    }
  }
  attr {
    key: "value"
    value {
      tensor {
        dtype: DT_INT32
        tensor_shape {
          dim {
            size: 1
          }
        }
        int_val: 0
      }
    }
  }
}
node {
  name: "report_uninitialized_variables_1/boolean_mask/strided_slice_1/stack_2"
  op: "Const"
  device: "/device:CPU:0"
  attr {
    key: "_output_shapes"
    value {
      list {
        shape {
          dim {
            size: 1
          }
        }
      }
    }
  }
  attr {
    key: "dtype"
    value {
      type: DT_INT32
    }
  }
  attr {
    key: "value"
    value {
      tensor {
        dtype: DT_INT32
        tensor_shape {
          dim {
            size: 1
          }
        }
        int_val: 1
      }
    }
  }
}
node {
  name: "report_uninitialized_variables_1/boolean_mask/strided_slice_1"
  op: "StridedSlice"
  input: "report_uninitialized_variables_1/boolean_mask/Shape_1"
  input: "report_uninitialized_variables_1/boolean_mask/strided_slice_1/stack"
  input: "report_uninitialized_variables_1/boolean_mask/strided_slice_1/stack_1"
  input: "report_uninitialized_variables_1/boolean_mask/strided_slice_1/stack_2"
  device: "/device:CPU:0"
  attr {
    key: "Index"
    value {
      type: DT_INT32
    }
  }
  attr {
    key: "T"
    value {
      type: DT_INT32
    }
  }
  attr {
    key: "_output_shapes"
    value {
      list {
        shape {
          dim {
          }
        }
      }
    }
  }
  attr {
    key: "begin_mask"
    value {
      i: 0
    }
  }
  attr {
    key: "ellipsis_mask"
    value {
      i: 0
    }
  }
  attr {
    key: "end_mask"
    value {
      i: 1
    }
  }
  attr {
    key: "new_axis_mask"
    value {
      i: 0
    }
  }
  attr {
    key: "shrink_axis_mask"
    value {
      i: 0
    }
  }
}
node {
  name: "report_uninitialized_variables_1/boolean_mask/concat/values_0"
  op: "Pack"
  input: "report_uninitialized_variables_1/boolean_mask/Prod"
  device: "/device:CPU:0"
  attr {
    key: "N"
    value {
      i: 1
    }
  }
  attr {
    key: "T"
    value {
      type: DT_INT32
    }
  }
  attr {
    key: "_output_shapes"
    value {
      list {
        shape {
          dim {
            size: 1
          }
        }
      }
    }
  }
  attr {
    key: "axis"
    value {
      i: 0
    }
  }
}
node {
  name: "report_uninitialized_variables_1/boolean_mask/concat/axis"
  op: "Const"
  device: "/device:CPU:0"
  attr {
    key: "_output_shapes"
    value {
      list {
        shape {
        }
      }
    }
  }
  attr {
    key: "dtype"
    value {
      type: DT_INT32
    }
  }
  attr {
    key: "value"
    value {
      tensor {
        dtype: DT_INT32
        tensor_shape {
        }
        int_val: 0
      }
    }
  }
}
node {
  name: "report_uninitialized_variables_1/boolean_mask/concat"
  op: "ConcatV2"
  input: "report_uninitialized_variables_1/boolean_mask/concat/values_0"
  input: "report_uninitialized_variables_1/boolean_mask/strided_slice_1"
  input: "report_uninitialized_variables_1/boolean_mask/concat/axis"
  device: "/device:CPU:0"
  attr {
    key: "N"
    value {
      i: 2
    }
  }
  attr {
    key: "T"
    value {
      type: DT_INT32
    }
  }
  attr {
    key: "Tidx"
    value {
      type: DT_INT32
    }
  }
  attr {
    key: "_output_shapes"
    value {
      list {
        shape {
          dim {
            size: 1
          }
        }
      }
    }
  }
}
node {
  name: "report_uninitialized_variables_1/boolean_mask/Reshape"
  op: "Reshape"
  input: "report_uninitialized_variables_1/Const"
  input: "report_uninitialized_variables_1/boolean_mask/concat"
  device: "/device:CPU:0"
  attr {
    key: "T"
    value {
      type: DT_STRING
    }
  }
  attr {
    key: "Tshape"
    value {
      type: DT_INT32
    }
  }
  attr {
    key: "_output_shapes"
    value {
      list {
        shape {
          dim {
            size: 15
          }
        }
      }
    }
  }
}
node {
  name: "report_uninitialized_variables_1/boolean_mask/Reshape_1/shape"
  op: "Const"
  device: "/device:CPU:0"
  attr {
    key: "_output_shapes"
    value {
      list {
        shape {
          dim {
            size: 1
          }
        }
      }
    }
  }
  attr {
    key: "dtype"
    value {
      type: DT_INT32
    }
  }
  attr {
    key: "value"
    value {
      tensor {
        dtype: DT_INT32
        tensor_shape {
          dim {
            size: 1
          }
        }
        int_val: -1
      }
    }
  }
}
node {
  name: "report_uninitialized_variables_1/boolean_mask/Reshape_1"
  op: "Reshape"
  input: "report_uninitialized_variables_1/LogicalNot"
  input: "report_uninitialized_variables_1/boolean_mask/Reshape_1/shape"
  device: "/device:CPU:0"
  attr {
    key: "T"
    value {
      type: DT_BOOL
    }
  }
  attr {
    key: "Tshape"
    value {
      type: DT_INT32
    }
  }
  attr {
    key: "_output_shapes"
    value {
      list {
        shape {
          dim {
            size: 15
          }
        }
      }
    }
  }
}
node {
  name: "report_uninitialized_variables_1/boolean_mask/Where"
  op: "Where"
  input: "report_uninitialized_variables_1/boolean_mask/Reshape_1"
  device: "/device:CPU:0"
  attr {
    key: "_output_shapes"
    value {
      list {
        shape {
          dim {
            size: -1
          }
          dim {
            size: 1
          }
        }
      }
    }
  }
}
node {
  name: "report_uninitialized_variables_1/boolean_mask/Squeeze"
  op: "Squeeze"
  input: "report_uninitialized_variables_1/boolean_mask/Where"
  device: "/device:CPU:0"
  attr {
    key: "T"
    value {
      type: DT_INT64
    }
  }
  attr {
    key: "_output_shapes"
    value {
      list {
        shape {
          dim {
            size: -1
          }
        }
      }
    }
  }
  attr {
    key: "squeeze_dims"
    value {
      list {
        i: 1
      }
    }
  }
}
node {
  name: "report_uninitialized_variables_1/boolean_mask/Gather"
  op: "Gather"
  input: "report_uninitialized_variables_1/boolean_mask/Reshape"
  input: "report_uninitialized_variables_1/boolean_mask/Squeeze"
  device: "/device:CPU:0"
  attr {
    key: "Tindices"
    value {
      type: DT_INT64
    }
  }
  attr {
    key: "Tparams"
    value {
      type: DT_STRING
    }
  }
  attr {
    key: "_output_shapes"
    value {
      list {
        shape {
          dim {
            size: -1
          }
        }
      }
    }
  }
  attr {
    key: "validate_indices"
    value {
      b: true
    }
  }
}
node {
  name: "init_2"
  op: "NoOp"
}
node {
  name: "init_all_tables"
  op: "NoOp"
}
node {
  name: "group_deps_1"
  op: "NoOp"
  input: "^init_2"
  input: "^init_all_tables"
}
node {
  name: "Merge/MergeSummary"
  op: "MergeSummary"
  input: "enqueue_input/queue/enqueue_input/fifo_queuefraction_over_0_of_1280_full"
  input: "loss"
  attr {
    key: "N"
    value {
      i: 2
    }
  }
  attr {
    key: "_output_shapes"
    value {
      list {
        shape {
        }
      }
    }
  }
}
node {
  name: "save/Const"
  op: "Const"
  attr {
    key: "_output_shapes"
    value {
      list {
        shape {
        }
      }
    }
  }
  attr {
    key: "dtype"
    value {
      type: DT_STRING
    }
  }
  attr {
    key: "value"
    value {
      tensor {
        dtype: DT_STRING
        tensor_shape {
        }
        string_val: "model"
      }
    }
  }
}
node {
  name: "save/StringJoin/inputs_1"
  op: "Const"
  attr {
    key: "_output_shapes"
    value {
      list {
        shape {
        }
      }
    }
  }
  attr {
    key: "dtype"
    value {
      type: DT_STRING
    }
  }
  attr {
    key: "value"
    value {
      tensor {
        dtype: DT_STRING
        tensor_shape {
        }
        string_val: "_temp_dfdfa1b6da724af283c9d59518e62cd7/part"
      }
    }
  }
}
node {
  name: "save/StringJoin"
  op: "StringJoin"
  input: "save/Const"
  input: "save/StringJoin/inputs_1"
  attr {
    key: "N"
    value {
      i: 2
    }
  }
  attr {
    key: "_output_shapes"
    value {
      list {
        shape {
        }
      }
    }
  }
  attr {
    key: "separator"
    value {
      s: ""
    }
  }
}
node {
  name: "save/num_shards"
  op: "Const"
  attr {
    key: "_output_shapes"
    value {
      list {
        shape {
        }
      }
    }
  }
  attr {
    key: "dtype"
    value {
      type: DT_INT32
    }
  }
  attr {
    key: "value"
    value {
      tensor {
        dtype: DT_INT32
        tensor_shape {
        }
        int_val: 1
      }
    }
  }
}
node {
  name: "save/ShardedFilename/shard"
  op: "Const"
  attr {
    key: "_output_shapes"
    value {
      list {
        shape {
        }
      }
    }
  }
  attr {
    key: "dtype"
    value {
      type: DT_INT32
    }
  }
  attr {
    key: "value"
    value {
      tensor {
        dtype: DT_INT32
        tensor_shape {
        }
        int_val: 0
      }
    }
  }
}
node {
  name: "save/ShardedFilename"
  op: "ShardedFilename"
  input: "save/StringJoin"
  input: "save/ShardedFilename/shard"
  input: "save/num_shards"
  attr {
    key: "_output_shapes"
    value {
      list {
        shape {
        }
      }
    }
  }
}
node {
  name: "save/SaveV2/tensor_names"
  op: "Const"
  attr {
    key: "_output_shapes"
    value {
      list {
        shape {
          dim {
            size: 15
          }
        }
      }
    }
  }
  attr {
    key: "dtype"
    value {
      type: DT_STRING
    }
  }
  attr {
    key: "value"
    value {
      tensor {
        dtype: DT_STRING
        tensor_shape {
          dim {
            size: 15
          }
        }
        string_val: "beta1_power"
        string_val: "beta2_power"
        string_val: "global_step"
        string_val: "rnn/basic_lstm_cell/bias"
        string_val: "rnn/basic_lstm_cell/bias/Adam"
        string_val: "rnn/basic_lstm_cell/bias/Adam_1"
        string_val: "rnn/basic_lstm_cell/kernel"
        string_val: "rnn/basic_lstm_cell/kernel/Adam"
        string_val: "rnn/basic_lstm_cell/kernel/Adam_1"
        string_val: "softmax_b"
        string_val: "softmax_b/Adam"
        string_val: "softmax_b/Adam_1"
        string_val: "softmax_w"
        string_val: "softmax_w/Adam"
        string_val: "softmax_w/Adam_1"
      }
    }
  }
}
node {
  name: "save/SaveV2/shape_and_slices"
  op: "Const"
  attr {
    key: "_output_shapes"
    value {
      list {
        shape {
          dim {
            size: 15
          }
        }
      }
    }
  }
  attr {
    key: "dtype"
    value {
      type: DT_STRING
    }
  }
  attr {
    key: "value"
    value {
      tensor {
        dtype: DT_STRING
        tensor_shape {
          dim {
            size: 15
          }
        }
        string_val: ""
        string_val: ""
        string_val: ""
        string_val: ""
        string_val: ""
        string_val: ""
        string_val: ""
        string_val: ""
        string_val: ""
        string_val: ""
        string_val: ""
        string_val: ""
        string_val: ""
        string_val: ""
        string_val: ""
      }
    }
  }
}
node {
  name: "save/SaveV2"
  op: "SaveV2"
  input: "save/ShardedFilename"
  input: "save/SaveV2/tensor_names"
  input: "save/SaveV2/shape_and_slices"
  input: "beta1_power"
  input: "beta2_power"
  input: "global_step"
  input: "rnn/basic_lstm_cell/bias"
  input: "rnn/basic_lstm_cell/bias/Adam"
  input: "rnn/basic_lstm_cell/bias/Adam_1"
  input: "rnn/basic_lstm_cell/kernel"
  input: "rnn/basic_lstm_cell/kernel/Adam"
  input: "rnn/basic_lstm_cell/kernel/Adam_1"
  input: "softmax_b"
  input: "softmax_b/Adam"
  input: "softmax_b/Adam_1"
  input: "softmax_w"
  input: "softmax_w/Adam"
  input: "softmax_w/Adam_1"
  attr {
    key: "dtypes"
    value {
      list {
        type: DT_FLOAT
        type: DT_FLOAT
        type: DT_INT64
        type: DT_DOUBLE
        type: DT_DOUBLE
        type: DT_DOUBLE
        type: DT_DOUBLE
        type: DT_DOUBLE
        type: DT_DOUBLE
        type: DT_DOUBLE
        type: DT_DOUBLE
        type: DT_DOUBLE
        type: DT_DOUBLE
        type: DT_DOUBLE
        type: DT_DOUBLE
      }
    }
  }
}
node {
  name: "save/control_dependency"
  op: "Identity"
  input: "save/ShardedFilename"
  input: "^save/SaveV2"
  attr {
    key: "T"
    value {
      type: DT_STRING
    }
  }
  attr {
    key: "_class"
    value {
      list {
        s: "loc:@save/ShardedFilename"
      }
    }
  }
  attr {
    key: "_output_shapes"
    value {
      list {
        shape {
        }
      }
    }
  }
}
node {
  name: "save/MergeV2Checkpoints/checkpoint_prefixes"
  op: "Pack"
  input: "save/ShardedFilename"
  input: "^save/control_dependency"
  attr {
    key: "N"
    value {
      i: 1
    }
  }
  attr {
    key: "T"
    value {
      type: DT_STRING
    }
  }
  attr {
    key: "_output_shapes"
    value {
      list {
        shape {
          dim {
            size: 1
          }
        }
      }
    }
  }
  attr {
    key: "axis"
    value {
      i: 0
    }
  }
}
node {
  name: "save/MergeV2Checkpoints"
  op: "MergeV2Checkpoints"
  input: "save/MergeV2Checkpoints/checkpoint_prefixes"
  input: "save/Const"
  attr {
    key: "delete_old_dirs"
    value {
      b: true
    }
  }
}
node {
  name: "save/Identity"
  op: "Identity"
  input: "save/Const"
  input: "^save/control_dependency"
  input: "^save/MergeV2Checkpoints"
  attr {
    key: "T"
    value {
      type: DT_STRING
    }
  }
  attr {
    key: "_output_shapes"
    value {
      list {
        shape {
        }
      }
    }
  }
}
node {
  name: "save/RestoreV2/tensor_names"
  op: "Const"
  attr {
    key: "_output_shapes"
    value {
      list {
        shape {
          dim {
            size: 1
          }
        }
      }
    }
  }
  attr {
    key: "dtype"
    value {
      type: DT_STRING
    }
  }
  attr {
    key: "value"
    value {
      tensor {
        dtype: DT_STRING
        tensor_shape {
          dim {
            size: 1
          }
        }
        string_val: "beta1_power"
      }
    }
  }
}
node {
  name: "save/RestoreV2/shape_and_slices"
  op: "Const"
  attr {
    key: "_output_shapes"
    value {
      list {
        shape {
          dim {
            size: 1
          }
        }
      }
    }
  }
  attr {
    key: "dtype"
    value {
      type: DT_STRING
    }
  }
  attr {
    key: "value"
    value {
      tensor {
        dtype: DT_STRING
        tensor_shape {
          dim {
            size: 1
          }
        }
        string_val: ""
      }
    }
  }
}
node {
  name: "save/RestoreV2"
  op: "RestoreV2"
  input: "save/Const"
  input: "save/RestoreV2/tensor_names"
  input: "save/RestoreV2/shape_and_slices"
  attr {
    key: "_output_shapes"
    value {
      list {
        shape {
          unknown_rank: true
        }
      }
    }
  }
  attr {
    key: "dtypes"
    value {
      list {
        type: DT_FLOAT
      }
    }
  }
}
node {
  name: "save/Assign"
  op: "Assign"
  input: "beta1_power"
  input: "save/RestoreV2"
  attr {
    key: "T"
    value {
      type: DT_FLOAT
    }
  }
  attr {
    key: "_class"
    value {
      list {
        s: "loc:@rnn/basic_lstm_cell/bias"
      }
    }
  }
  attr {
    key: "_output_shapes"
    value {
      list {
        shape {
        }
      }
    }
  }
  attr {
    key: "use_locking"
    value {
      b: true
    }
  }
  attr {
    key: "validate_shape"
    value {
      b: true
    }
  }
}
node {
  name: "save/RestoreV2_1/tensor_names"
  op: "Const"
  attr {
    key: "_output_shapes"
    value {
      list {
        shape {
          dim {
            size: 1
          }
        }
      }
    }
  }
  attr {
    key: "dtype"
    value {
      type: DT_STRING
    }
  }
  attr {
    key: "value"
    value {
      tensor {
        dtype: DT_STRING
        tensor_shape {
          dim {
            size: 1
          }
        }
        string_val: "beta2_power"
      }
    }
  }
}
node {
  name: "save/RestoreV2_1/shape_and_slices"
  op: "Const"
  attr {
    key: "_output_shapes"
    value {
      list {
        shape {
          dim {
            size: 1
          }
        }
      }
    }
  }
  attr {
    key: "dtype"
    value {
      type: DT_STRING
    }
  }
  attr {
    key: "value"
    value {
      tensor {
        dtype: DT_STRING
        tensor_shape {
          dim {
            size: 1
          }
        }
        string_val: ""
      }
    }
  }
}
node {
  name: "save/RestoreV2_1"
  op: "RestoreV2"
  input: "save/Const"
  input: "save/RestoreV2_1/tensor_names"
  input: "save/RestoreV2_1/shape_and_slices"
  attr {
    key: "_output_shapes"
    value {
      list {
        shape {
          unknown_rank: true
        }
      }
    }
  }
  attr {
    key: "dtypes"
    value {
      list {
        type: DT_FLOAT
      }
    }
  }
}
node {
  name: "save/Assign_1"
  op: "Assign"
  input: "beta2_power"
  input: "save/RestoreV2_1"
  attr {
    key: "T"
    value {
      type: DT_FLOAT
    }
  }
  attr {
    key: "_class"
    value {
      list {
        s: "loc:@rnn/basic_lstm_cell/bias"
      }
    }
  }
  attr {
    key: "_output_shapes"
    value {
      list {
        shape {
        }
      }
    }
  }
  attr {
    key: "use_locking"
    value {
      b: true
    }
  }
  attr {
    key: "validate_shape"
    value {
      b: true
    }
  }
}
node {
  name: "save/RestoreV2_2/tensor_names"
  op: "Const"
  attr {
    key: "_output_shapes"
    value {
      list {
        shape {
          dim {
            size: 1
          }
        }
      }
    }
  }
  attr {
    key: "dtype"
    value {
      type: DT_STRING
    }
  }
  attr {
    key: "value"
    value {
      tensor {
        dtype: DT_STRING
        tensor_shape {
          dim {
            size: 1
          }
        }
        string_val: "global_step"
      }
    }
  }
}
node {
  name: "save/RestoreV2_2/shape_and_slices"
  op: "Const"
  attr {
    key: "_output_shapes"
    value {
      list {
        shape {
          dim {
            size: 1
          }
        }
      }
    }
  }
  attr {
    key: "dtype"
    value {
      type: DT_STRING
    }
  }
  attr {
    key: "value"
    value {
      tensor {
        dtype: DT_STRING
        tensor_shape {
          dim {
            size: 1
          }
        }
        string_val: ""
      }
    }
  }
}
node {
  name: "save/RestoreV2_2"
  op: "RestoreV2"
  input: "save/Const"
  input: "save/RestoreV2_2/tensor_names"
  input: "save/RestoreV2_2/shape_and_slices"
  attr {
    key: "_output_shapes"
    value {
      list {
        shape {
          unknown_rank: true
        }
      }
    }
  }
  attr {
    key: "dtypes"
    value {
      list {
        type: DT_INT64
      }
    }
  }
}
node {
  name: "save/Assign_2"
  op: "Assign"
  input: "global_step"
  input: "save/RestoreV2_2"
  attr {
    key: "T"
    value {
      type: DT_INT64
    }
  }
  attr {
    key: "_class"
    value {
      list {
        s: "loc:@global_step"
      }
    }
  }
  attr {
    key: "_output_shapes"
    value {
      list {
        shape {
        }
      }
    }
  }
  attr {
    key: "use_locking"
    value {
      b: true
    }
  }
  attr {
    key: "validate_shape"
    value {
      b: true
    }
  }
}
node {
  name: "save/RestoreV2_3/tensor_names"
  op: "Const"
  attr {
    key: "_output_shapes"
    value {
      list {
        shape {
          dim {
            size: 1
          }
        }
      }
    }
  }
  attr {
    key: "dtype"
    value {
      type: DT_STRING
    }
  }
  attr {
    key: "value"
    value {
      tensor {
        dtype: DT_STRING
        tensor_shape {
          dim {
            size: 1
          }
        }
        string_val: "rnn/basic_lstm_cell/bias"
      }
    }
  }
}
node {
  name: "save/RestoreV2_3/shape_and_slices"
  op: "Const"
  attr {
    key: "_output_shapes"
    value {
      list {
        shape {
          dim {
            size: 1
          }
        }
      }
    }
  }
  attr {
    key: "dtype"
    value {
      type: DT_STRING
    }
  }
  attr {
    key: "value"
    value {
      tensor {
        dtype: DT_STRING
        tensor_shape {
          dim {
            size: 1
          }
        }
        string_val: ""
      }
    }
  }
}
node {
  name: "save/RestoreV2_3"
  op: "RestoreV2"
  input: "save/Const"
  input: "save/RestoreV2_3/tensor_names"
  input: "save/RestoreV2_3/shape_and_slices"
  attr {
    key: "_output_shapes"
    value {
      list {
        shape {
          unknown_rank: true
        }
      }
    }
  }
  attr {
    key: "dtypes"
    value {
      list {
        type: DT_DOUBLE
      }
    }
  }
}
node {
  name: "save/Assign_3"
  op: "Assign"
  input: "rnn/basic_lstm_cell/bias"
  input: "save/RestoreV2_3"
  attr {
    key: "T"
    value {
      type: DT_DOUBLE
    }
  }
  attr {
    key: "_class"
    value {
      list {
        s: "loc:@rnn/basic_lstm_cell/bias"
      }
    }
  }
  attr {
    key: "_output_shapes"
    value {
      list {
        shape {
          dim {
            size: 400
          }
        }
      }
    }
  }
  attr {
    key: "use_locking"
    value {
      b: true
    }
  }
  attr {
    key: "validate_shape"
    value {
      b: true
    }
  }
}
node {
  name: "save/RestoreV2_4/tensor_names"
  op: "Const"
  attr {
    key: "_output_shapes"
    value {
      list {
        shape {
          dim {
            size: 1
          }
        }
      }
    }
  }
  attr {
    key: "dtype"
    value {
      type: DT_STRING
    }
  }
  attr {
    key: "value"
    value {
      tensor {
        dtype: DT_STRING
        tensor_shape {
          dim {
            size: 1
          }
        }
        string_val: "rnn/basic_lstm_cell/bias/Adam"
      }
    }
  }
}
node {
  name: "save/RestoreV2_4/shape_and_slices"
  op: "Const"
  attr {
    key: "_output_shapes"
    value {
      list {
        shape {
          dim {
            size: 1
          }
        }
      }
    }
  }
  attr {
    key: "dtype"
    value {
      type: DT_STRING
    }
  }
  attr {
    key: "value"
    value {
      tensor {
        dtype: DT_STRING
        tensor_shape {
          dim {
            size: 1
          }
        }
        string_val: ""
      }
    }
  }
}
node {
  name: "save/RestoreV2_4"
  op: "RestoreV2"
  input: "save/Const"
  input: "save/RestoreV2_4/tensor_names"
  input: "save/RestoreV2_4/shape_and_slices"
  attr {
    key: "_output_shapes"
    value {
      list {
        shape {
          unknown_rank: true
        }
      }
    }
  }
  attr {
    key: "dtypes"
    value {
      list {
        type: DT_DOUBLE
      }
    }
  }
}
node {
  name: "save/Assign_4"
  op: "Assign"
  input: "rnn/basic_lstm_cell/bias/Adam"
  input: "save/RestoreV2_4"
  attr {
    key: "T"
    value {
      type: DT_DOUBLE
    }
  }
  attr {
    key: "_class"
    value {
      list {
        s: "loc:@rnn/basic_lstm_cell/bias"
      }
    }
  }
  attr {
    key: "_output_shapes"
    value {
      list {
        shape {
          dim {
            size: 400
          }
        }
      }
    }
  }
  attr {
    key: "use_locking"
    value {
      b: true
    }
  }
  attr {
    key: "validate_shape"
    value {
      b: true
    }
  }
}
node {
  name: "save/RestoreV2_5/tensor_names"
  op: "Const"
  attr {
    key: "_output_shapes"
    value {
      list {
        shape {
          dim {
            size: 1
          }
        }
      }
    }
  }
  attr {
    key: "dtype"
    value {
      type: DT_STRING
    }
  }
  attr {
    key: "value"
    value {
      tensor {
        dtype: DT_STRING
        tensor_shape {
          dim {
            size: 1
          }
        }
        string_val: "rnn/basic_lstm_cell/bias/Adam_1"
      }
    }
  }
}
node {
  name: "save/RestoreV2_5/shape_and_slices"
  op: "Const"
  attr {
    key: "_output_shapes"
    value {
      list {
        shape {
          dim {
            size: 1
          }
        }
      }
    }
  }
  attr {
    key: "dtype"
    value {
      type: DT_STRING
    }
  }
  attr {
    key: "value"
    value {
      tensor {
        dtype: DT_STRING
        tensor_shape {
          dim {
            size: 1
          }
        }
        string_val: ""
      }
    }
  }
}
node {
  name: "save/RestoreV2_5"
  op: "RestoreV2"
  input: "save/Const"
  input: "save/RestoreV2_5/tensor_names"
  input: "save/RestoreV2_5/shape_and_slices"
  attr {
    key: "_output_shapes"
    value {
      list {
        shape {
          unknown_rank: true
        }
      }
    }
  }
  attr {
    key: "dtypes"
    value {
      list {
        type: DT_DOUBLE
      }
    }
  }
}
node {
  name: "save/Assign_5"
  op: "Assign"
  input: "rnn/basic_lstm_cell/bias/Adam_1"
  input: "save/RestoreV2_5"
  attr {
    key: "T"
    value {
      type: DT_DOUBLE
    }
  }
  attr {
    key: "_class"
    value {
      list {
        s: "loc:@rnn/basic_lstm_cell/bias"
      }
    }
  }
  attr {
    key: "_output_shapes"
    value {
      list {
        shape {
          dim {
            size: 400
          }
        }
      }
    }
  }
  attr {
    key: "use_locking"
    value {
      b: true
    }
  }
  attr {
    key: "validate_shape"
    value {
      b: true
    }
  }
}
node {
  name: "save/RestoreV2_6/tensor_names"
  op: "Const"
  attr {
    key: "_output_shapes"
    value {
      list {
        shape {
          dim {
            size: 1
          }
        }
      }
    }
  }
  attr {
    key: "dtype"
    value {
      type: DT_STRING
    }
  }
  attr {
    key: "value"
    value {
      tensor {
        dtype: DT_STRING
        tensor_shape {
          dim {
            size: 1
          }
        }
        string_val: "rnn/basic_lstm_cell/kernel"
      }
    }
  }
}
node {
  name: "save/RestoreV2_6/shape_and_slices"
  op: "Const"
  attr {
    key: "_output_shapes"
    value {
      list {
        shape {
          dim {
            size: 1
          }
        }
      }
    }
  }
  attr {
    key: "dtype"
    value {
      type: DT_STRING
    }
  }
  attr {
    key: "value"
    value {
      tensor {
        dtype: DT_STRING
        tensor_shape {
          dim {
            size: 1
          }
        }
        string_val: ""
      }
    }
  }
}
node {
  name: "save/RestoreV2_6"
  op: "RestoreV2"
  input: "save/Const"
  input: "save/RestoreV2_6/tensor_names"
  input: "save/RestoreV2_6/shape_and_slices"
  attr {
    key: "_output_shapes"
    value {
      list {
        shape {
          unknown_rank: true
        }
      }
    }
  }
  attr {
    key: "dtypes"
    value {
      list {
        type: DT_DOUBLE
      }
    }
  }
}
node {
  name: "save/Assign_6"
  op: "Assign"
  input: "rnn/basic_lstm_cell/kernel"
  input: "save/RestoreV2_6"
  attr {
    key: "T"
    value {
      type: DT_DOUBLE
    }
  }
  attr {
    key: "_class"
    value {
      list {
        s: "loc:@rnn/basic_lstm_cell/kernel"
      }
    }
  }
  attr {
    key: "_output_shapes"
    value {
      list {
        shape {
          dim {
            size: 151
          }
          dim {
            size: 400
          }
        }
      }
    }
  }
  attr {
    key: "use_locking"
    value {
      b: true
    }
  }
  attr {
    key: "validate_shape"
    value {
      b: true
    }
  }
}
node {
  name: "save/RestoreV2_7/tensor_names"
  op: "Const"
  attr {
    key: "_output_shapes"
    value {
      list {
        shape {
          dim {
            size: 1
          }
        }
      }
    }
  }
  attr {
    key: "dtype"
    value {
      type: DT_STRING
    }
  }
  attr {
    key: "value"
    value {
      tensor {
        dtype: DT_STRING
        tensor_shape {
          dim {
            size: 1
          }
        }
        string_val: "rnn/basic_lstm_cell/kernel/Adam"
      }
    }
  }
}
node {
  name: "save/RestoreV2_7/shape_and_slices"
  op: "Const"
  attr {
    key: "_output_shapes"
    value {
      list {
        shape {
          dim {
            size: 1
          }
        }
      }
    }
  }
  attr {
    key: "dtype"
    value {
      type: DT_STRING
    }
  }
  attr {
    key: "value"
    value {
      tensor {
        dtype: DT_STRING
        tensor_shape {
          dim {
            size: 1
          }
        }
        string_val: ""
      }
    }
  }
}
node {
  name: "save/RestoreV2_7"
  op: "RestoreV2"
  input: "save/Const"
  input: "save/RestoreV2_7/tensor_names"
  input: "save/RestoreV2_7/shape_and_slices"
  attr {
    key: "_output_shapes"
    value {
      list {
        shape {
          unknown_rank: true
        }
      }
    }
  }
  attr {
    key: "dtypes"
    value {
      list {
        type: DT_DOUBLE
      }
    }
  }
}
node {
  name: "save/Assign_7"
  op: "Assign"
  input: "rnn/basic_lstm_cell/kernel/Adam"
  input: "save/RestoreV2_7"
  attr {
    key: "T"
    value {
      type: DT_DOUBLE
    }
  }
  attr {
    key: "_class"
    value {
      list {
        s: "loc:@rnn/basic_lstm_cell/kernel"
      }
    }
  }
  attr {
    key: "_output_shapes"
    value {
      list {
        shape {
          dim {
            size: 151
          }
          dim {
            size: 400
          }
        }
      }
    }
  }
  attr {
    key: "use_locking"
    value {
      b: true
    }
  }
  attr {
    key: "validate_shape"
    value {
      b: true
    }
  }
}
node {
  name: "save/RestoreV2_8/tensor_names"
  op: "Const"
  attr {
    key: "_output_shapes"
    value {
      list {
        shape {
          dim {
            size: 1
          }
        }
      }
    }
  }
  attr {
    key: "dtype"
    value {
      type: DT_STRING
    }
  }
  attr {
    key: "value"
    value {
      tensor {
        dtype: DT_STRING
        tensor_shape {
          dim {
            size: 1
          }
        }
        string_val: "rnn/basic_lstm_cell/kernel/Adam_1"
      }
    }
  }
}
node {
  name: "save/RestoreV2_8/shape_and_slices"
  op: "Const"
  attr {
    key: "_output_shapes"
    value {
      list {
        shape {
          dim {
            size: 1
          }
        }
      }
    }
  }
  attr {
    key: "dtype"
    value {
      type: DT_STRING
    }
  }
  attr {
    key: "value"
    value {
      tensor {
        dtype: DT_STRING
        tensor_shape {
          dim {
            size: 1
          }
        }
        string_val: ""
      }
    }
  }
}
node {
  name: "save/RestoreV2_8"
  op: "RestoreV2"
  input: "save/Const"
  input: "save/RestoreV2_8/tensor_names"
  input: "save/RestoreV2_8/shape_and_slices"
  attr {
    key: "_output_shapes"
    value {
      list {
        shape {
          unknown_rank: true
        }
      }
    }
  }
  attr {
    key: "dtypes"
    value {
      list {
        type: DT_DOUBLE
      }
    }
  }
}
node {
  name: "save/Assign_8"
  op: "Assign"
  input: "rnn/basic_lstm_cell/kernel/Adam_1"
  input: "save/RestoreV2_8"
  attr {
    key: "T"
    value {
      type: DT_DOUBLE
    }
  }
  attr {
    key: "_class"
    value {
      list {
        s: "loc:@rnn/basic_lstm_cell/kernel"
      }
    }
  }
  attr {
    key: "_output_shapes"
    value {
      list {
        shape {
          dim {
            size: 151
          }
          dim {
            size: 400
          }
        }
      }
    }
  }
  attr {
    key: "use_locking"
    value {
      b: true
    }
  }
  attr {
    key: "validate_shape"
    value {
      b: true
    }
  }
}
node {
  name: "save/RestoreV2_9/tensor_names"
  op: "Const"
  attr {
    key: "_output_shapes"
    value {
      list {
        shape {
          dim {
            size: 1
          }
        }
      }
    }
  }
  attr {
    key: "dtype"
    value {
      type: DT_STRING
    }
  }
  attr {
    key: "value"
    value {
      tensor {
        dtype: DT_STRING
        tensor_shape {
          dim {
            size: 1
          }
        }
        string_val: "softmax_b"
      }
    }
  }
}
node {
  name: "save/RestoreV2_9/shape_and_slices"
  op: "Const"
  attr {
    key: "_output_shapes"
    value {
      list {
        shape {
          dim {
            size: 1
          }
        }
      }
    }
  }
  attr {
    key: "dtype"
    value {
      type: DT_STRING
    }
  }
  attr {
    key: "value"
    value {
      tensor {
        dtype: DT_STRING
        tensor_shape {
          dim {
            size: 1
          }
        }
        string_val: ""
      }
    }
  }
}
node {
  name: "save/RestoreV2_9"
  op: "RestoreV2"
  input: "save/Const"
  input: "save/RestoreV2_9/tensor_names"
  input: "save/RestoreV2_9/shape_and_slices"
  attr {
    key: "_output_shapes"
    value {
      list {
        shape {
          unknown_rank: true
        }
      }
    }
  }
  attr {
    key: "dtypes"
    value {
      list {
        type: DT_DOUBLE
      }
    }
  }
}
node {
  name: "save/Assign_9"
  op: "Assign"
  input: "softmax_b"
  input: "save/RestoreV2_9"
  attr {
    key: "T"
    value {
      type: DT_DOUBLE
    }
  }
  attr {
    key: "_class"
    value {
      list {
        s: "loc:@softmax_b"
      }
    }
  }
  attr {
    key: "_output_shapes"
    value {
      list {
        shape {
          dim {
            size: 1
          }
          dim {
            size: 51
          }
        }
      }
    }
  }
  attr {
    key: "use_locking"
    value {
      b: true
    }
  }
  attr {
    key: "validate_shape"
    value {
      b: true
    }
  }
}
node {
  name: "save/RestoreV2_10/tensor_names"
  op: "Const"
  attr {
    key: "_output_shapes"
    value {
      list {
        shape {
          dim {
            size: 1
          }
        }
      }
    }
  }
  attr {
    key: "dtype"
    value {
      type: DT_STRING
    }
  }
  attr {
    key: "value"
    value {
      tensor {
        dtype: DT_STRING
        tensor_shape {
          dim {
            size: 1
          }
        }
        string_val: "softmax_b/Adam"
      }
    }
  }
}
node {
  name: "save/RestoreV2_10/shape_and_slices"
  op: "Const"
  attr {
    key: "_output_shapes"
    value {
      list {
        shape {
          dim {
            size: 1
          }
        }
      }
    }
  }
  attr {
    key: "dtype"
    value {
      type: DT_STRING
    }
  }
  attr {
    key: "value"
    value {
      tensor {
        dtype: DT_STRING
        tensor_shape {
          dim {
            size: 1
          }
        }
        string_val: ""
      }
    }
  }
}
node {
  name: "save/RestoreV2_10"
  op: "RestoreV2"
  input: "save/Const"
  input: "save/RestoreV2_10/tensor_names"
  input: "save/RestoreV2_10/shape_and_slices"
  attr {
    key: "_output_shapes"
    value {
      list {
        shape {
          unknown_rank: true
        }
      }
    }
  }
  attr {
    key: "dtypes"
    value {
      list {
        type: DT_DOUBLE
      }
    }
  }
}
node {
  name: "save/Assign_10"
  op: "Assign"
  input: "softmax_b/Adam"
  input: "save/RestoreV2_10"
  attr {
    key: "T"
    value {
      type: DT_DOUBLE
    }
  }
  attr {
    key: "_class"
    value {
      list {
        s: "loc:@softmax_b"
      }
    }
  }
  attr {
    key: "_output_shapes"
    value {
      list {
        shape {
          dim {
            size: 1
          }
          dim {
            size: 51
          }
        }
      }
    }
  }
  attr {
    key: "use_locking"
    value {
      b: true
    }
  }
  attr {
    key: "validate_shape"
    value {
      b: true
    }
  }
}
node {
  name: "save/RestoreV2_11/tensor_names"
  op: "Const"
  attr {
    key: "_output_shapes"
    value {
      list {
        shape {
          dim {
            size: 1
          }
        }
      }
    }
  }
  attr {
    key: "dtype"
    value {
      type: DT_STRING
    }
  }
  attr {
    key: "value"
    value {
      tensor {
        dtype: DT_STRING
        tensor_shape {
          dim {
            size: 1
          }
        }
        string_val: "softmax_b/Adam_1"
      }
    }
  }
}
node {
  name: "save/RestoreV2_11/shape_and_slices"
  op: "Const"
  attr {
    key: "_output_shapes"
    value {
      list {
        shape {
          dim {
            size: 1
          }
        }
      }
    }
  }
  attr {
    key: "dtype"
    value {
      type: DT_STRING
    }
  }
  attr {
    key: "value"
    value {
      tensor {
        dtype: DT_STRING
        tensor_shape {
          dim {
            size: 1
          }
        }
        string_val: ""
      }
    }
  }
}
node {
  name: "save/RestoreV2_11"
  op: "RestoreV2"
  input: "save/Const"
  input: "save/RestoreV2_11/tensor_names"
  input: "save/RestoreV2_11/shape_and_slices"
  attr {
    key: "_output_shapes"
    value {
      list {
        shape {
          unknown_rank: true
        }
      }
    }
  }
  attr {
    key: "dtypes"
    value {
      list {
        type: DT_DOUBLE
      }
    }
  }
}
node {
  name: "save/Assign_11"
  op: "Assign"
  input: "softmax_b/Adam_1"
  input: "save/RestoreV2_11"
  attr {
    key: "T"
    value {
      type: DT_DOUBLE
    }
  }
  attr {
    key: "_class"
    value {
      list {
        s: "loc:@softmax_b"
      }
    }
  }
  attr {
    key: "_output_shapes"
    value {
      list {
        shape {
          dim {
            size: 1
          }
          dim {
            size: 51
          }
        }
      }
    }
  }
  attr {
    key: "use_locking"
    value {
      b: true
    }
  }
  attr {
    key: "validate_shape"
    value {
      b: true
    }
  }
}
node {
  name: "save/RestoreV2_12/tensor_names"
  op: "Const"
  attr {
    key: "_output_shapes"
    value {
      list {
        shape {
          dim {
            size: 1
          }
        }
      }
    }
  }
  attr {
    key: "dtype"
    value {
      type: DT_STRING
    }
  }
  attr {
    key: "value"
    value {
      tensor {
        dtype: DT_STRING
        tensor_shape {
          dim {
            size: 1
          }
        }
        string_val: "softmax_w"
      }
    }
  }
}
node {
  name: "save/RestoreV2_12/shape_and_slices"
  op: "Const"
  attr {
    key: "_output_shapes"
    value {
      list {
        shape {
          dim {
            size: 1
          }
        }
      }
    }
  }
  attr {
    key: "dtype"
    value {
      type: DT_STRING
    }
  }
  attr {
    key: "value"
    value {
      tensor {
        dtype: DT_STRING
        tensor_shape {
          dim {
            size: 1
          }
        }
        string_val: ""
      }
    }
  }
}
node {
  name: "save/RestoreV2_12"
  op: "RestoreV2"
  input: "save/Const"
  input: "save/RestoreV2_12/tensor_names"
  input: "save/RestoreV2_12/shape_and_slices"
  attr {
    key: "_output_shapes"
    value {
      list {
        shape {
          unknown_rank: true
        }
      }
    }
  }
  attr {
    key: "dtypes"
    value {
      list {
        type: DT_DOUBLE
      }
    }
  }
}
node {
  name: "save/Assign_12"
  op: "Assign"
  input: "softmax_w"
  input: "save/RestoreV2_12"
  attr {
    key: "T"
    value {
      type: DT_DOUBLE
    }
  }
  attr {
    key: "_class"
    value {
      list {
        s: "loc:@softmax_w"
      }
    }
  }
  attr {
    key: "_output_shapes"
    value {
      list {
        shape {
          dim {
            size: 100
          }
          dim {
            size: 51
          }
        }
      }
    }
  }
  attr {
    key: "use_locking"
    value {
      b: true
    }
  }
  attr {
    key: "validate_shape"
    value {
      b: true
    }
  }
}
node {
  name: "save/RestoreV2_13/tensor_names"
  op: "Const"
  attr {
    key: "_output_shapes"
    value {
      list {
        shape {
          dim {
            size: 1
          }
        }
      }
    }
  }
  attr {
    key: "dtype"
    value {
      type: DT_STRING
    }
  }
  attr {
    key: "value"
    value {
      tensor {
        dtype: DT_STRING
        tensor_shape {
          dim {
            size: 1
          }
        }
        string_val: "softmax_w/Adam"
      }
    }
  }
}
node {
  name: "save/RestoreV2_13/shape_and_slices"
  op: "Const"
  attr {
    key: "_output_shapes"
    value {
      list {
        shape {
          dim {
            size: 1
          }
        }
      }
    }
  }
  attr {
    key: "dtype"
    value {
      type: DT_STRING
    }
  }
  attr {
    key: "value"
    value {
      tensor {
        dtype: DT_STRING
        tensor_shape {
          dim {
            size: 1
          }
        }
        string_val: ""
      }
    }
  }
}
node {
  name: "save/RestoreV2_13"
  op: "RestoreV2"
  input: "save/Const"
  input: "save/RestoreV2_13/tensor_names"
  input: "save/RestoreV2_13/shape_and_slices"
  attr {
    key: "_output_shapes"
    value {
      list {
        shape {
          unknown_rank: true
        }
      }
    }
  }
  attr {
    key: "dtypes"
    value {
      list {
        type: DT_DOUBLE
      }
    }
  }
}
node {
  name: "save/Assign_13"
  op: "Assign"
  input: "softmax_w/Adam"
  input: "save/RestoreV2_13"
  attr {
    key: "T"
    value {
      type: DT_DOUBLE
    }
  }
  attr {
    key: "_class"
    value {
      list {
        s: "loc:@softmax_w"
      }
    }
  }
  attr {
    key: "_output_shapes"
    value {
      list {
        shape {
          dim {
            size: 100
          }
          dim {
            size: 51
          }
        }
      }
    }
  }
  attr {
    key: "use_locking"
    value {
      b: true
    }
  }
  attr {
    key: "validate_shape"
    value {
      b: true
    }
  }
}
node {
  name: "save/RestoreV2_14/tensor_names"
  op: "Const"
  attr {
    key: "_output_shapes"
    value {
      list {
        shape {
          dim {
            size: 1
          }
        }
      }
    }
  }
  attr {
    key: "dtype"
    value {
      type: DT_STRING
    }
  }
  attr {
    key: "value"
    value {
      tensor {
        dtype: DT_STRING
        tensor_shape {
          dim {
            size: 1
          }
        }
        string_val: "softmax_w/Adam_1"
      }
    }
  }
}
node {
  name: "save/RestoreV2_14/shape_and_slices"
  op: "Const"
  attr {
    key: "_output_shapes"
    value {
      list {
        shape {
          dim {
            size: 1
          }
        }
      }
    }
  }
  attr {
    key: "dtype"
    value {
      type: DT_STRING
    }
  }
  attr {
    key: "value"
    value {
      tensor {
        dtype: DT_STRING
        tensor_shape {
          dim {
            size: 1
          }
        }
        string_val: ""
      }
    }
  }
}
node {
  name: "save/RestoreV2_14"
  op: "RestoreV2"
  input: "save/Const"
  input: "save/RestoreV2_14/tensor_names"
  input: "save/RestoreV2_14/shape_and_slices"
  attr {
    key: "_output_shapes"
    value {
      list {
        shape {
          unknown_rank: true
        }
      }
    }
  }
  attr {
    key: "dtypes"
    value {
      list {
        type: DT_DOUBLE
      }
    }
  }
}
node {
  name: "save/Assign_14"
  op: "Assign"
  input: "softmax_w/Adam_1"
  input: "save/RestoreV2_14"
  attr {
    key: "T"
    value {
      type: DT_DOUBLE
    }
  }
  attr {
    key: "_class"
    value {
      list {
        s: "loc:@softmax_w"
      }
    }
  }
  attr {
    key: "_output_shapes"
    value {
      list {
        shape {
          dim {
            size: 100
          }
          dim {
            size: 51
          }
        }
      }
    }
  }
  attr {
    key: "use_locking"
    value {
      b: true
    }
  }
  attr {
    key: "validate_shape"
    value {
      b: true
    }
  }
}
node {
  name: "save/restore_shard"
  op: "NoOp"
  input: "^save/Assign"
  input: "^save/Assign_1"
  input: "^save/Assign_2"
  input: "^save/Assign_3"
  input: "^save/Assign_4"
  input: "^save/Assign_5"
  input: "^save/Assign_6"
  input: "^save/Assign_7"
  input: "^save/Assign_8"
  input: "^save/Assign_9"
  input: "^save/Assign_10"
  input: "^save/Assign_11"
  input: "^save/Assign_12"
  input: "^save/Assign_13"
  input: "^save/Assign_14"
}
node {
  name: "save/restore_all"
  op: "NoOp"
  input: "^save/restore_shard"
}
versions {
  producer: 24
}
